…
3a908>>, timeout=180), args: ('https://api.wandb.ai/files/kiriti-v/lca_cnn/shqkbeh6/file_stream',), kwargs: {'json': {'files': {'output.log': {'offset': 2, 'content': ['2024-03-07T17:29:14.792031 __________________________________________________________________________________________________\n', '2024-03-07T17:29:14.792031 Layer (type)                    Output Shape         Param #     Connected to\n', '2024-03-07T17:29:14.792031 ==================================================================================================\n', '2024-03-07T17:29:14.792031 input_1 (InputLayer)            (None, 448, 448, 3)  0\n', '2024-03-07T17:29:14.792031 __________________________________________________________________________________________________\n', '2024-03-07T17:29:14.792031 conv2d_1 (Conv2D)               (None, 223, 223, 32) 864         input_1[0][0]\n', '2024-03-07T17:29:14.792031 __________________________________________________________________________________________________\n', '2024-03-07T17:29:14.792031 batch_normalization_1 (BatchNor (None, 223, 223, 32) 96          conv2d_1[0][0]\n', '2024-03-07T17:29:14.792031 __________________________________________________________________________________________________\n', '2024-03-07T17:29:14.792031 activation_1 (Activation)       (None, 223, 223, 32) 0           batch_normalization_1[0][0]\n', '2024-03-07T17:29:14.792031 __________________________________________________________________________________________________\n', '2024-03-07T17:29:14.792031 conv2d_2 (Conv2D)               (None, 221, 221, 32) 9216        activation_1[0][0]\n', '2024-03-07T17:29:14.792031 __________________________________________________________________________________________________\n', '2024-03-07T17:29:14.792031 batch_normalization_2 (BatchNor (None, 221, 221, 32) 96          conv2d_2[0][0]\n', '2024-03-07T17:29:14.792031 __________________________________________________________________________________________________\n', '2024-03-07T17:29:14.792031 activation_2 (Activation)       (None, 221, 221, 32) 0           batch_normalization_2[0][0]\n', '2024-03-07T17:29:14.792031 __________________________________________________________________________________________________\n', '2024-03-07T17:29:14.792031 conv2d_3 (Conv2D)               (None, 221, 221, 64) 18432       activation_2[0][0]\n', '2024-03-07T17:29:14.792031 __________________________________________________________________________________________________\n', '2024-03-07T17:29:14.792031 batch_normalization_3 (BatchNor (None, 221, 221, 64) 192         conv2d_3[0][0]\n', '2024-03-07T17:29:14.792031 __________________________________________________________________________________________________\n', '2024-03-07T17:29:14.792031 activation_3 (Activation)       (None, 221, 221, 64) 0           batch_normalization_3[0][0]\n', '2024-03-07T17:29:14.792031 __________________________________________________________________________________________________\n', '2024-03-07T17:29:14.792031 max_pooling2d_1 (MaxPooling2D)  (None, 110, 110, 64) 0           activation_3[0][0]\n', '2024-03-07T17:29:14.792031 __________________________________________________________________________________________________\n', '2024-03-07T17:29:14.792031 conv2d_4 (Conv2D)               (None, 110, 110, 80) 5120        max_pooling2d_1[0][0]\n', '2024-03-07T17:29:14.792031 __________________________________________________________________________________________________\n', '2024-03-07T17:29:14.792031 input_2_2 (InputLayer)          (None, 448, 448, 3)  0\n', '2024-03-07T17:29:14.792031 __________________________________________________________________________________________________\n', '2024-03-07T17:29:14.792031 batch_normalization_4 (BatchNor (None, 110, 110, 80) 240         conv2d_4[0][0]\n', '2024-03-07T17:29:14.792031 __________________________________________________________________________________________________\n', '2024-03-07T17:29:14.792031 conv2d_95_2 (Conv2D)            (None, 223, 223, 32) 864         input_2_2[0][0]\n', '2024-03-07T17:29:14.792031 __________________________________________________________________________________________________\n', '2024-03-07T17:29:14.792031 activation_4 (Activation)       (None, 110, 110, 80) 0           batch_normalization_4[0][0]\n', '2024-03-07T17:29:14.792031 __________________________________________________________________________________________________\n', '2024-03-07T17:29:14.792031 batch_normalization_95_2 (Batch (None, 223, 223, 32) 96          conv2d_95_2[0][0]\n', '2024-03-07T17:29:14.792031 __________________________________________________________________________________________________\n', '2024-03-07T17:29:14.792031 conv2d_5 (Conv2D)               (None, 108, 108, 192 138240      activation_4[0][0]\n', '2024-03-07T17:29:14.792031 __________________________________________________________________________________________________\n', '2024-03-07T17:29:14.792031 activation_95_2 (Activation)    (None, 223, 223, 32) 0           batch_normalization_95_2[0][0]\n', '2024-03-07T17:29:14.792031 __________________________________________________________________________________________________\n', '2024-03-07T17:29:14.792031 batch_normalization_5 (BatchNor (None, 108, 108, 192 576         conv2d_5[0][0]\n', '2024-03-07T17:29:14.792031 __________________________________________________________________________________________________\n', '2024-03-07T17:29:14.792031 conv2d_96_2 (Conv2D)            (None, 221, 221, 32) 9216        activation_95_2[0][0]\n', '2024-03-07T17:29:14.792031 __________________________________________________________________________________________________\n', '2024-03-07T17:29:14.792031 activation_5 (Activation)       (None, 108, 108, 192 0           batch_normalization_5[0][0]\n', '2024-03-07T17:29:14.792031 __________________________________________________________________________________________________\n', '2024-03-07T17:29:14.792031 batch_normalization_96_2 (Batch (None, 221, 221, 32) 96          conv2d_96_2[0][0]\n', '2024-03-07T17:29:14.792031 __________________________________________________________________________________________________\n', '2024-03-07T17:29:14.792031 max_pooling2d_2 (MaxPooling2D)  (None, 53, 53, 192)  0           activation_5[0][0]\n', '2024-03-07T17:29:14.792031 __________________________________________________________________________________________________\n', '2024-03-07T17:29:14.792031 activation_96_2 (Activation)    (None, 221, 221, 32) 0           batch_normalization_96_2[0][0]\n', '2024-03-07T17:29:14.792031 __________________________________________________________________________________________________\n', '2024-03-07T17:29:14.792031 conv2d_9 (Conv2D)               (None, 53, 53, 64)   12288       max_pooling2d_2[0][0]\n', '2024-03-07T17:29:14.792031 __________________________________________________________________________________________________\n', '2024-03-07T17:29:14.792031 conv2d_97_2 (Conv2D)            (None, 221, 221, 64) 18432       activation_96_2[0][0]\n', '2024-03-07T17:29:14.792031 __________________________________________________________________________________________________\n', '2024-03-07T17:29:14.792031 batch_normalization_9 (BatchNor (None, 53, 53, 64)   192         conv2d_9[0][0]\n', '2024-03-07T17:29:14.792031 __________________________________________________________________________________________________\n', '2024-03-07T17:29:14.792031 batch_normalization_97_2 (Batch (None, 221, 221, 64) 192         conv2d_97_2[0][0]\n', '2024-03-07T17:29:14.792031 __________________________________________________________________________________________________\n', '2024-03-07T17:29:14.792031 activation_9 (Activation)       (None, 53, 53, 64)   0           batch_normalization_9[0][0]\n', '2024-03-07T17:29:14.792031 __________________________________________________________________________________________________\n', '2024-03-07T17:29:14.792031 activation_97_2 (Activation)    (None, 221, 221, 64) 0           batch_normalization_97_2[0][0]\n', '2024-03-07T17:29:14.792031 __________________________________________________________________________________________________\n', '2024-03-07T17:29:14.792031 conv2d_7 (Conv2D)               (None, 53, 53, 48)   9216        max_pooling2d_2[0][0]\n', '2024-03-07T17:29:14.792031 __________________________________________________________________________________________________\n', '2024-03-07T17:29:14.792031 conv2d_10 (Conv2D)              (None, 53, 53, 96)   55296       activation_9[0][0]\n', '2024-03-07T17:29:14.792031 __________________________________________________________________________________________________\n', '2024-03-07T17:29:14.792031 max_pooling2d_5_2 (MaxPooling2D (None, 110, 110, 64) 0           activation_97_2[0][0]\n', '2024-03-07T17:29:14.792031 __________________________________________________________________________________________________\n', '2024-03-07T17:29:14.792031 batch_normalization_7 (BatchNor (None, 53, 53, 48)   144         conv2d_7[0][0]\n', '2024-03-07T17:29:14.792031 __________________________________________________________________________________________________\n', '2024-03-07T17:29:14.792031 batch_normalization_10 (BatchNo (None, 53, 53, 96)   288         conv2d_10[0][0]\n', '2024-03-07T17:29:14.792031 __________________________________________________________________________________________________\n', '2024-03-07T17:29:14.792031 conv2d_98_2 (Conv2D)            (None, 110, 110, 80) 5120        max_pooling2d_5_2[0][0]\n', '2024-03-07T17:29:14.792031 __________________________________________________________________________________________________\n', '2024-03-07T17:29:14.792031 activation_7 (Activation)       (None, 53, 53, 48)   0           batch_normalization_7[0][0]\n', '2024-03-07T17:29:14.792031 __________________________________________________________________________________________________\n', '2024-03-07T17:29:14.792031 activation_10 (Activation)      (None, 53, 53, 96)   0           batch_normalization_10[0][0]\n', '2024-03-07T17:29:14.792031 __________________________________________________________________________________________________\n', '2024-03-07T17:29:14.792031 average_pooling2d_1 (AveragePoo (None, 53, 53, 192)  0           max_pooling2d_2[0][0]\n', '2024-03-07T17:29:14.792031 __________________________________________________________________________________________________\n', '2024-03-07T17:29:14.792031 batch_normalization_98_2 (Batch (None, 110, 110, 80) 240         conv2d_98_2[0][0]\n', '2024-03-07T17:29:14.792031 __________________________________________________________________________________________________\n', '2024-03-07T17:29:14.792031 conv2d_6 (Conv2D)               (None, 53, 53, 64)   12288       max_pooling2d_2[0][0]\n', '2024-03-07T17:29:14.792031 __________________________________________________________________________________________________\n', '2024-03-07T17:29:14.792031 conv2d_8 (Conv2D)               (None, 53, 53, 64)   76800       activation_7[0][0]\n', '2024-03-07T17:29:14.792031 __________________________________________________________________________________________________\n', '2024-03-07T17:29:14.792031 conv2d_11 (Conv2D)              (None, 53, 53, 96)   82944       activation_10[0][0]\n', '2024-03-07T17:29:14.792031 __________________________________________________________________________________________________\n', '2024-03-07T17:29:14.792031 conv2d_12 (Conv2D)              (None, 53, 53, 32)   6144        average_pooling2d_1[0][0]\n', '2024-03-07T17:29:14.792031 __________________________________________________________________________________________________\n', '2024-03-07T17:29:14.792031 activation_98_2 (Activation)    (None, 110, 110, 80) 0           batch_normalization_98_2[0][0]\n', '2024-03-07T17:29:14.792031 __________________________________________________________________________________________________\n', '2024-03-07T17:29:14.792031 batch_normalization_6 (BatchNor (None, 53, 53, 64)   192         conv2d_6[0][0]\n', '2024-03-07T17:29:14.792031 __________________________________________________________________________________________________\n', '2024-03-07T17:29:14.792031 batch_normalization_8 (BatchNor (None, 53, 53, 64)   192         conv2d_8[0][0]\n', '2024-03-07T17:29:14.792031 __________________________________________________________________________________________________\n', '2024-03-07T17:29:14.792031 batch_normalization_11 (BatchNo (None, 53, 53, 96)   288         conv2d_11[0][0]\n', '2024-03-07T17:29:14.792031 __________________________________________________________________________________________________\n', '2024-03-07T17:29:14.792031 batch_normalization_12 (BatchNo (None, 53, 53, 32)   96          conv2d_12[0][0]\n', '2024-03-07T17:29:14.792031 __________________________________________________________________________________________________\n', '2024-03-07T17:29:14.792031 conv2d_99_2 (Conv2D)            (None, 108, 108, 192 138240      activation_98_2[0][0]\n', '2024-03-07T17:29:14.792031 __________________________________________________________________________________________________\n', '2024-03-07T17:29:14.792031 activation_6 (Activation)       (None, 53, 53, 64)   0           batch_normalization_6[0][0]\n', '2024-03-07T17:29:14.792031 __________________________________________________________________________________________________\n', '2024-03-07T17:29:14.792031 activation_8 (Activation)       (None, 53, 53, 64)   0           batch_normalization_8[0][0]\n', '2024-03-07T17:29:14.792031 __________________________________________________________________________________________________\n', '2024-03-07T17:29:14.792031 activation_11 (Activation)      (None, 53, 53, 96)   0           batch_normalization_11[0][0]\n', '2024-03-07T17:29:14.792031 __________________________________________________________________________________________________\n', '2024-03-07T17:29:14.792031 activation_12 (Activation)      (None, 53, 53, 32)   0           batch_normalization_12[0][0]\n', '2024-03-07T17:29:14.792031 __________________________________________________________________________________________________\n', '2024-03-07T17:29:14.792031 batch_normalization_99_2 (Batch (None, 108, 108, 192 576         conv2d_99_2[0][0]\n', '2024-03-07T17:29:14.792031 __________________________________________________________________________________________________\n', '2024-03-07T17:29:14.792031 mixed0 (Concatenate)            (None, 53, 53, 256)  0           activation_6[0][0]\n', '2024-03-07T17:29:14.792031                                                                  activation_8[0][0]\n', '2024-03-07T17:29:14.792031                                                                  activation_11[0][0]\n', '2024-03-07T17:29:14.792031                                                                  activation_12[0][0]\n', '2024-03-07T17:29:14.792031 __________________________________________________________________________________________________\n', '2024-03-07T17:29:14.792031 activation_99_2 (Activation)    (None, 108, 108, 192 0           batch_normalization_99_2[0][0]\n', '2024-03-07T17:29:14.792031 __________________________________________________________________________________________________\n', '2024-03-07T17:29:14.792031 conv2d_16 (Conv2D)              (None, 53, 53, 64)   16384       mixed0[0][0]\n', '2024-03-07T17:29:14.792031 __________________________________________________________________________________________________\n', '2024-03-07T17:29:14.792031 max_pooling2d_6_2 (MaxPooling2D (None, 53, 53, 192)  0           activation_99_2[0][0]\n', '2024-03-07T17:29:14.792031 __________________________________________________________________________________________________\n', '2024-03-07T17:29:14.792031 batch_normalization_16 (BatchNo (None, 53, 53, 64)   192         conv2d_16[0][0]\n', '2024-03-07T17:29:14.792031 __________________________________________________________________________________________________\n', '2024-03-07T17:29:14.792031 conv2d_103_2 (Conv2D)           (None, 53, 53, 64)   12288       max_pooling2d_6_2[0][0]\n', '2024-03-07T17:29:14.792031 __________________________________________________________________________________________________\n', '2024-03-07T17:29:14.792031 activation_16 (Activation)      (None, 53, 53, 64)   0           batch_normalization_16[0][0]\n', '2024-03-07T17:29:14.792031 __________________________________________________________________________________________________\n', '2024-03-07T17:29:14.792031 batch_normalization_103_2 (Batc (None, 53, 53, 64)   192         conv2d_103_2[0][0]\n', '2024-03-07T17:29:14.792031 __________________________________________________________________________________________________\n', '2024-03-07T17:29:14.792031 conv2d_14 (Conv2D)              (None, 53, 53, 48)   12288       mixed0[0][0]\n', '2024-03-07T17:29:14.792031 __________________________________________________________________________________________________\n', '2024-03-07T17:29:14.792031 conv2d_17 (Conv2D)              (None, 53, 53, 96)   55296       activation_16[0][0]\n', '2024-03-07T17:29:14.792031 __________________________________________________________________________________________________\n', '2024-03-07T17:29:14.792031 activation_103_2 (Activation)   (None, 53, 53, 64)   0           batch_normalization_103_2[0][0]\n', '2024-03-07T17:29:14.792031 __________________________________________________________________________________________________\n', '2024-03-07T17:29:14.792031 batch_normalization_14 (BatchNo (None, 53, 53, 48)   144         conv2d_14[0][0]\n', '2024-03-07T17:29:14.792031 __________________________________________________________________________________________________\n', '2024-03-07T17:29:14.792031 batch_normalization_17 (BatchNo (None, 53, 53, 96)   288         conv2d_17[0][0]\n', '2024-03-07T17:29:14.792031 __________________________________________________________________________________________________\n', '2024-03-07T17:29:14.792031 conv2d_101_2 (Conv2D)           (None, 53, 53, 48)   9216        max_pooling2d_6_2[0][0]\n', '2024-03-07T17:29:14.792031 __________________________________________________________________________________________________\n', '2024-03-07T17:29:14.792031 conv2d_104_2 (Conv2D)           (None, 53, 53, 96)   55296       activation_103_2[0][0]\n', '2024-03-07T17:29:14.792031 __________________________________________________________________________________________________\n', '2024-03-07T17:29:14.792031 activation_14 (Activation)      (None, 53, 53, 48)   0           batch_normalization_14[0][0]\n', '2024-03-07T17:29:14.792031 __________________________________________________________________________________________________\n', '2024-03-07T17:29:14.792031 activation_17 (Activation)      (None, 53, 53, 96)   0           batch_normalization_17[0][0]\n', '2024-03-07T17:29:14.792031 __________________________________________________________________________________________________\n', '2024-03-07T17:29:14.792031 average_pooling2d_2 (AveragePoo (None, 53, 53, 256)  0           mixed0[0][0]\n', '2024-03-07T17:29:14.792031 __________________________________________________________________________________________________\n', '2024-03-07T17:29:14.792031 batch_normalization_101_2 (Batc (None, 53, 53, 48)   144         conv2d_101_2[0][0]\n', '2024-03-07T17:29:14.792031 __________________________________________________________________________________________________\n', '2024-03-07T17:29:14.792031 batch_normalization_104_2 (Batc (None, 53, 53, 96)   288         conv2d_104_2[0][0]\n', '2024-03-07T17:29:14.792031 __________________________________________________________________________________________________\n', '2024-03-07T17:29:14.792031 conv2d_13 (Conv2D)              (None, 53, 53, 64)   16384       mixed0[0][0]\n', '2024-03-07T17:29:14.792031 __________________________________________________________________________________________________\n', '2024-03-07T17:29:14.792031 conv2d_15 (Conv2D)              (None, 53, 53, 64)   76800       activation_14[0][0]\n', '2024-03-07T17:29:14.792031 __________________________________________________________________________________________________\n', '2024-03-07T17:29:14.792031 conv2d_18 (Conv2D)              (None, 53, 53, 96)   82944       activation_17[0][0]\n', '2024-03-07T17:29:14.792031 __________________________________________________________________________________________________\n', '2024-03-07T17:29:14.792031 conv2d_19 (Conv2D)              (None, 53, 53, 64)   16384       average_pooling2d_2[0][0]\n', '2024-03-07T17:29:14.792031 __________________________________________________________________________________________________\n', '2024-03-07T17:29:14.792031 activation_101_2 (Activation)   (None, 53, 53, 48)   0           batch_normalization_101_2[0][0]\n', '2024-03-07T17:29:14.792031 __________________________________________________________________________________________________\n', '2024-03-07T17:29:14.792031 activation_104_2 (Activation)   (None, 53, 53, 96)   0           batch_normalization_104_2[0][0]\n', '2024-03-07T17:29:14.792031 __________________________________________________________________________________________________\n', '2024-03-07T17:29:14.792031 average_pooling2d_10_2 (Average (None, 53, 53, 192)  0           max_pooling2d_6_2[0][0]\n', '2024-03-07T17:29:14.792031 __________________________________________________________________________________________________\n', '2024-03-07T17:29:14.792031 batch_normalization_13 (BatchNo (None, 53, 53, 64)   192         conv2d_13[0][0]\n', '2024-03-07T17:29:14.792031 __________________________________________________________________________________________________\n', '2024-03-07T17:29:14.792031 batch_normalization_15 (BatchNo (None, 53, 53, 64)   192         conv2d_15[0][0]\n', '2024-03-07T17:29:14.792031 __________________________________________________________________________________________________\n', '2024-03-07T17:29:14.792031 batch_normalization_18 (BatchNo (None, 53, 53, 96)   288         conv2d_18[0][0]\n', '2024-03-07T17:29:14.792031 __________________________________________________________________________________________________\n', '2024-03-07T17:29:14.792031 batch_normalization_19 (BatchNo (None, 53, 53, 64)   192         conv2d_19[0][0]\n', '2024-03-07T17:29:14.792031 __________________________________________________________________________________________________\n', '2024-03-07T17:29:14.792031 conv2d_100_2 (Conv2D)           (None, 53, 53, 64)   12288       max_pooling2d_6_2[0][0]\n', '2024-03-07T17:29:14.792031 __________________________________________________________________________________________________\n', '2024-03-07T17:29:14.792031 conv2d_102_2 (Conv2D)           (None, 53, 53, 64)   76800       activation_101_2[0][0]\n', '2024-03-07T17:29:14.792031 __________________________________________________________________________________________________\n', '2024-03-07T17:29:14.792031 conv2d_105_2 (Conv2D)           (None, 53, 53, 96)   82944       activation_104_2[0][0]\n', '2024-03-07T17:29:14.792031 __________________________________________________________________________________________________\n', '2024-03-07T17:29:14.792031 conv2d_106_2 (Conv2D)           (None, 53, 53, 32)   6144        average_pooling2d_10_2[0][0]\n', '2024-03-07T17:29:14.792031 __________________________________________________________________________________________________\n', '2024-03-07T17:29:14.792031 activation_13 (Activation)      (None, 53, 53, 64)   0           batch_normalization_13[0][0]\n', '2024-03-07T17:29:14.792031 __________________________________________________________________________________________________\n', '2024-03-07T17:29:14.792031 activation_15 (Activation)      (None, 53, 53, 64)   0           batch_normalization_15[0][0]\n', '2024-03-07T17:29:14.792031 __________________________________________________________________________________________________\n', '2024-03-07T17:29:14.792031 activation_18 (Activation)      (None, 53, 53, 96)   0           batch_normalization_18[0][0]\n', '2024-03-07T17:29:14.792031 __________________________________________________________________________________________________\n', '2024-03-07T17:29:14.792031 activation_19 (Activation)      (None, 53, 53, 64)   0           batch_normalization_19[0][0]\n', '2024-03-07T17:29:14.792031 __________________________________________________________________________________________________\n', '2024-03-07T17:29:14.792031 batch_normalization_100_2 (Batc (None, 53, 53, 64)   192         conv2d_100_2[0][0]\n', '2024-03-07T17:29:14.792031 __________________________________________________________________________________________________\n', '2024-03-07T17:29:14.792031 batch_normalization_102_2 (Batc (None, 53, 53, 64)   192         conv2d_102_2[0][0]\n', '2024-03-07T17:29:14.792031 __________________________________________________________________________________________________\n', '2024-03-07T17:29:14.792031 batch_normalization_105_2 (Batc (None, 53, 53, 96)   288         conv2d_105_2[0][0]\n', '2024-03-07T17:29:14.792031 __________________________________________________________________________________________________\n', '2024-03-07T17:29:14.792031 batch_normalization_106_2 (Batc (None, 53, 53, 32)   96          conv2d_106_2[0][0]\n', '2024-03-07T17:29:14.792031 __________________________________________________________________________________________________\n', '2024-03-07T17:29:14.792031 mixed1 (Concatenate)            (None, 53, 53, 288)  0           activation_13[0][0]\n', '2024-03-07T17:29:14.792031                                                                  activation_15[0][0]\n', '2024-03-07T17:29:14.792031                                                                  activation_18[0][0]\n', '2024-03-07T17:29:14.792031                                                                  activation_19[0][0]\n', '2024-03-07T17:29:14.792031 __________________________________________________________________________________________________\n', '2024-03-07T17:29:14.792031 activation_100_2 (Activation)   (None, 53, 53, 64)   0           batch_normalization_100_2[0][0]\n', '2024-03-07T17:29:14.792031 __________________________________________________________________________________________________\n', '2024-03-07T17:29:14.792031 activation_102_2 (Activation)   (None, 53, 53, 64)   0           batch_normalization_102_2[0][0]\n', '2024-03-07T17:29:14.792031 __________________________________________________________________________________________________\n', '2024-03-07T17:29:14.792031 activation_105_2 (Activation)   (None, 53, 53, 96)   0           batch_normalization_105_2[0][0]\n', '2024-03-07T17:29:14.792031 __________________________________________________________________________________________________\n', '2024-03-07T17:29:14.792031 activation_106_2 (Activation)   (None, 53, 53, 32)   0           batch_normalization_106_2[0][0]\n', '2024-03-07T17:29:14.792031 __________________________________________________________________________________________________\n', '2024-03-07T17:29:14.792031 conv2d_23 (Conv2D)              (None, 53, 53, 64)   18432       mixed1[0][0]\n', '2024-03-07T17:29:14.792031 __________________________________________________________________________________________________\n', '2024-03-07T17:29:14.792031 mixed0_2 (Concatenate)          (None, 53, 53, 256)  0           activation_100_2[0][0]\n', '2024-03-07T17:29:14.792031                                                                  activation_102_2[0][0]\n', '2024-03-07T17:29:14.792031                                                                  activation_105_2[0][0]\n', '2024-03-07T17:29:14.792031                                                                  activation_106_2[0][0]\n', '2024-03-07T17:29:14.792031 __________________________________________________________________________________________________\n', '2024-03-07T17:29:14.792031 batch_normalization_23 (BatchNo (None, 53, 53, 64)   192         conv2d_23[0][0]\n', '2024-03-07T17:29:14.792031 __________________________________________________________________________________________________\n', '2024-03-07T17:29:14.792031 conv2d_110_2 (Conv2D)           (None, 53, 53, 64)   16384       mixed0_2[0][0]\n', '2024-03-07T17:29:14.792031 __________________________________________________________________________________________________\n', '2024-03-07T17:29:14.792031 activation_23 (Activation)      (None, 53, 53, 64)   0           batch_normalization_23[0][0]\n', '2024-03-07T17:29:14.792031 __________________________________________________________________________________________________\n', '2024-03-07T17:29:14.792031 batch_normalization_110_2 (Batc (None, 53, 53, 64)   192         conv2d_110_2[0][0]\n', '2024-03-07T17:29:14.792031 __________________________________________________________________________________________________\n', '2024-03-07T17:29:14.792031 conv2d_21 (Conv2D)              (None, 53, 53, 48)   13824       mixed1[0][0]\n', '2024-03-07T17:29:14.792031 __________________________________________________________________________________________________\n', '2024-03-07T17:29:14.792031 conv2d_24 (Conv2D)              (None, 53, 53, 96)   55296       activation_23[0][0]\n', '2024-03-07T17:29:14.792031 __________________________________________________________________________________________________\n', '2024-03-07T17:29:14.792031 activation_110_2 (Activation)   (None, 53, 53, 64)   0           batch_normalization_110_2[0][0]\n', '2024-03-07T17:29:14.792031 __________________________________________________________________________________________________\n', '2024-03-07T17:29:14.792031 batch_normalization_21 (BatchNo (None, 53, 53, 48)   144         conv2d_21[0][0]\n', '2024-03-07T17:29:14.792031 __________________________________________________________________________________________________\n', '2024-03-07T17:29:14.792031 batch_normalization_24 (BatchNo (None, 53, 53, 96)   288         conv2d_24[0][0]\n', '2024-03-07T17:29:14.792031 __________________________________________________________________________________________________\n', '2024-03-07T17:29:14.792031 conv2d_108_2 (Conv2D)           (None, 53, 53, 48)   12288       mixed0_2[0][0]\n', '2024-03-07T17:29:14.792031 __________________________________________________________________________________________________\n', '2024-03-07T17:29:14.792031 conv2d_111_2 (Conv2D)           (None, 53, 53, 96)   55296       activation_110_2[0][0]\n', '2024-03-07T17:29:14.792031 __________________________________________________________________________________________________\n', '2024-03-07T17:29:14.792031 activation_21 (Activation)      (None, 53, 53, 48)   0           batch_normalization_21[0][0]\n', '2024-03-07T17:29:14.792031 __________________________________________________________________________________________________\n', '2024-03-07T17:29:14.792031 activation_24 (Activation)      (None, 53, 53, 96)   0           batch_normalization_24[0][0]\n', '2024-03-07T17:29:14.792031 __________________________________________________________________________________________________\n', '2024-03-07T17:29:14.792031 average_pooling2d_3 (AveragePoo (None, 53, 53, 288)  0           mixed1[0][0]\n', '2024-03-07T17:29:14.792031 __________________________________________________________________________________________________\n', '2024-03-07T17:29:14.792031 batch_normalization_108_2 (Batc (None, 53, 53, 48)   144         conv2d_108_2[0][0]\n', '2024-03-07T17:29:14.792031 __________________________________________________________________________________________________\n', '2024-03-07T17:29:14.792031 batch_normalization_111_2 (Batc (None, 53, 53, 96)   288         conv2d_111_2[0][0]\n', '2024-03-07T17:29:14.792031 __________________________________________________________________________________________________\n', '2024-03-07T17:29:14.792031 conv2d_20 (Conv2D)              (None, 53, 53, 64)   18432       mixed1[0][0]\n', '2024-03-07T17:29:14.792031 __________________________________________________________________________________________________\n', '2024-03-07T17:29:14.792031 conv2d_22 (Conv2D)              (None, 53, 53, 64)   76800       activation_21[0][0]\n', '2024-03-07T17:29:14.792031 __________________________________________________________________________________________________\n', '2024-03-07T17:29:14.792031 conv2d_25 (Conv2D)              (None, 53, 53, 96)   82944       activation_24[0][0]\n', '2024-03-07T17:29:14.792031 __________________________________________________________________________________________________\n', '2024-03-07T17:29:14.792031 conv2d_26 (Conv2D)              (None, 53, 53, 64)   18432       average_pooling2d_3[0][0]\n', '2024-03-07T17:29:14.792031 __________________________________________________________________________________________________\n', '2024-03-07T17:29:14.792031 activation_108_2 (Activation)   (None, 53, 53, 48)   0           batch_normalization_108_2[0][0]\n', '2024-03-07T17:29:14.792031 __________________________________________________________________________________________________\n', '2024-03-07T17:29:14.792031 activation_111_2 (Activation)   (None, 53, 53, 96)   0           batch_normalization_111_2[0][0]\n', '2024-03-07T17:29:14.792031 __________________________________________________________________________________________________\n', '2024-03-07T17:29:14.792031 average_pooling2d_11_2 (Average (None, 53, 53, 256)  0           mixed0_2[0][0]\n', '2024-03-07T17:29:14.792031 __________________________________________________________________________________________________\n', '2024-03-07T17:29:14.792031 batch_normalization_20 (BatchNo (None, 53, 53, 64)   192         conv2d_20[0][0]\n', '2024-03-07T17:29:14.792031 __________________________________________________________________________________________________\n', '2024-03-07T17:29:14.792031 batch_normalization_22 (BatchNo (None, 53, 53, 64)   192         conv2d_22[0][0]\n', '2024-03-07T17:29:14.792031 __________________________________________________________________________________________________\n', '2024-03-07T17:29:14.792031 batch_normalization_25 (BatchNo (None, 53, 53, 96)   288         conv2d_25[0][0]\n', '2024-03-07T17:29:14.792031 __________________________________________________________________________________________________\n', '2024-03-07T17:29:14.792031 batch_normalization_26 (BatchNo (None, 53, 53, 64)   192         conv2d_26[0][0]\n', '2024-03-07T17:29:14.792031 __________________________________________________________________________________________________\n', '2024-03-07T17:29:14.792031 conv2d_107_2 (Conv2D)           (None, 53, 53, 64)   16384       mixed0_2[0][0]\n', '2024-03-07T17:29:14.792031 __________________________________________________________________________________________________\n', '2024-03-07T17:29:14.792031 conv2d_109_2 (Conv2D)           (None, 53, 53, 64)   76800       activation_108_2[0][0]\n', '2024-03-07T17:29:14.792031 __________________________________________________________________________________________________\n', '2024-03-07T17:29:14.792031 conv2d_112_2 (Conv2D)           (None, 53, 53, 96)   82944       activation_111_2[0][0]\n', '2024-03-07T17:29:14.792031 __________________________________________________________________________________________________\n', '2024-03-07T17:29:14.792031 conv2d_113_2 (Conv2D)           (None, 53, 53, 64)   16384       average_pooling2d_11_2[0][0]\n', '2024-03-07T17:29:14.792031 __________________________________________________________________________________________________\n', '2024-03-07T17:29:14.792031 activation_20 (Activation)      (None, 53, 53, 64)   0           batch_normalization_20[0][0]\n', '2024-03-07T17:29:14.792031 __________________________________________________________________________________________________\n', '2024-03-07T17:29:14.792031 activation_22 (Activation)      (None, 53, 53, 64)   0           batch_normalization_22[0][0]\n', '2024-03-07T17:29:14.792031 __________________________________________________________________________________________________\n', '2024-03-07T17:29:14.792031 activation_25 (Activation)      (None, 53, 53, 96)   0           batch_normalization_25[0][0]\n', '2024-03-07T17:29:14.792031 __________________________________________________________________________________________________\n', '2024-03-07T17:29:14.792031 activation_26 (Activation)      (None, 53, 53, 64)   0           batch_normalization_26[0][0]\n', '2024-03-07T17:29:14.792031 __________________________________________________________________________________________________\n', '2024-03-07T17:29:14.792031 batch_normalization_107_2 (Batc (None, 53, 53, 64)   192         conv2d_107_2[0][0]\n', '2024-03-07T17:29:14.792031 __________________________________________________________________________________________________\n', '2024-03-07T17:29:14.792031 batch_normalization_109_2 (Batc (None, 53, 53, 64)   192         conv2d_109_2[0][0]\n', '2024-03-07T17:29:14.792031 __________________________________________________________________________________________________\n', '2024-03-07T17:29:14.792031 batch_normalization_112_2 (Batc (None, 53, 53, 96)   288         conv2d_112_2[0][0]\n', '2024-03-07T17:29:14.792031 __________________________________________________________________________________________________\n', '2024-03-07T17:29:14.792031 batch_normalization_113_2 (Batc (None, 53, 53, 64)   192         conv2d_113_2[0][0]\n', '2024-03-07T17:29:14.792031 __________________________________________________________________________________________________\n', '2024-03-07T17:29:14.792031 mixed2 (Concatenate)            (None, 53, 53, 288)  0           activation_20[0][0]\n', '2024-03-07T17:29:14.792031                                                                  activation_22[0][0]\n', '2024-03-07T17:29:14.792031                                                                  activation_25[0][0]\n', '2024-03-07T17:29:14.792031                                                                  activation_26[0][0]\n', '2024-03-07T17:29:14.792031 __________________________________________________________________________________________________\n', '2024-03-07T17:29:14.792031 activation_107_2 (Activation)   (None, 53, 53, 64)   0           batch_normalization_107_2[0][0]\n', '2024-03-07T17:29:14.792031 __________________________________________________________________________________________________\n', '2024-03-07T17:29:14.792031 activation_109_2 (Activation)   (None, 53, 53, 64)   0           batch_normalization_109_2[0][0]\n', '2024-03-07T17:29:14.792031 __________________________________________________________________________________________________\n', '2024-03-07T17:29:14.792031 activation_112_2 (Activation)   (None, 53, 53, 96)   0           batch_normalization_112_2[0][0]\n', '2024-03-07T17:29:14.792031 __________________________________________________________________________________________________\n', '2024-03-07T17:29:14.792031 activation_113_2 (Activation)   (None, 53, 53, 64)   0           batch_normalization_113_2[0][0]\n', '2024-03-07T17:29:14.792031 __________________________________________________________________________________________________\n', '2024-03-07T17:29:14.792031 conv2d_28 (Conv2D)              (None, 53, 53, 64)   18432       mixed2[0][0]\n', '2024-03-07T17:29:14.792031 __________________________________________________________________________________________________\n', '2024-03-07T17:29:14.792031 mixed1_2 (Concatenate)          (None, 53, 53, 288)  0           activation_107_2[0][0]\n', '2024-03-07T17:29:14.792031                                                                  activation_109_2[0][0]\n', '2024-03-07T17:29:14.792031                                                                  activation_112_2[0][0]\n', '2024-03-07T17:29:14.792031                                                                  activation_113_2[0][0]\n', '2024-03-07T17:29:14.792031 __________________________________________________________________________________________________\n', '2024-03-07T17:29:14.792031 batch_normalization_28 (BatchNo (None, 53, 53, 64)   192         conv2d_28[0][0]\n', '2024-03-07T17:29:14.792031 __________________________________________________________________________________________________\n', '2024-03-07T17:29:14.792031 conv2d_117_2 (Conv2D)           (None, 53, 53, 64)   18432       mixed1_2[0][0]\n', '2024-03-07T17:29:14.792031 __________________________________________________________________________________________________\n', '2024-03-07T17:29:14.792031 activation_28 (Activation)      (None, 53, 53, 64)   0           batch_normalization_28[0][0]\n', '2024-03-07T17:29:14.792031 __________________________________________________________________________________________________\n', '2024-03-07T17:29:14.792031 batch_normalization_117_2 (Batc (None, 53, 53, 64)   192         conv2d_117_2[0][0]\n', '2024-03-07T17:29:14.792031 __________________________________________________________________________________________________\n', '2024-03-07T17:29:14.792031 conv2d_29 (Conv2D)              (None, 53, 53, 96)   55296       activation_28[0][0]\n', '2024-03-07T17:29:14.792031 __________________________________________________________________________________________________\n', '2024-03-07T17:29:14.792031 activation_117_2 (Activation)   (None, 53, 53, 64)   0           batch_normalization_117_2[0][0]\n', '2024-03-07T17:29:14.792031 __________________________________________________________________________________________________\n', '2024-03-07T17:29:14.792031 batch_normalization_29 (BatchNo (None, 53, 53, 96)   288         conv2d_29[0][0]\n', '2024-03-07T17:29:14.792031 __________________________________________________________________________________________________\n', '2024-03-07T17:29:14.792031 conv2d_115_2 (Conv2D)           (None, 53, 53, 48)   13824       mixed1_2[0][0]\n', '2024-03-07T17:29:14.792031 __________________________________________________________________________________________________\n', '2024-03-07T17:29:14.792031 conv2d_118_2 (Conv2D)           (None, 53, 53, 96)   55296       activation_117_2[0][0]\n', '2024-03-07T17:29:14.792031 __________________________________________________________________________________________________\n', '2024-03-07T17:29:14.792031 activation_29 (Activation)      (None, 53, 53, 96)   0           batch_normalization_29[0][0]\n', '2024-03-07T17:29:14.792031 __________________________________________________________________________________________________\n', '2024-03-07T17:29:14.792031 batch_normalization_115_2 (Batc (None, 53, 53, 48)   144         conv2d_115_2[0][0]\n', '2024-03-07T17:29:14.792031 __________________________________________________________________________________________________\n', '2024-03-07T17:29:14.792031 batch_normalization_118_2 (Batc (None, 53, 53, 96)   288         conv2d_118_2[0][0]\n', '2024-03-07T17:29:14.792031 __________________________________________________________________________________________________\n', '2024-03-07T17:29:14.792031 conv2d_27 (Conv2D)              (None, 26, 26, 384)  995328      mixed2[0][0]\n', '2024-03-07T17:29:14.792031 __________________________________________________________________________________________________\n', '2024-03-07T17:29:14.792031 conv2d_30 (Conv2D)              (None, 26, 26, 96)   82944       activation_29[0][0]\n', '2024-03-07T17:29:14.792031 __________________________________________________________________________________________________\n', '2024-03-07T17:29:14.792031 activation_115_2 (Activation)   (None, 53, 53, 48)   0           batch_normalization_115_2[0][0]\n', '2024-03-07T17:29:14.792031 __________________________________________________________________________________________________\n', '2024-03-07T17:29:14.792031 activation_118_2 (Activation)   (None, 53, 53, 96)   0           batch_normalization_118_2[0][0]\n', '2024-03-07T17:29:14.792031 __________________________________________________________________________________________________\n', '2024-03-07T17:29:14.792031 average_pooling2d_12_2 (Average (None, 53, 53, 288)  0           mixed1_2[0][0]\n', '2024-03-07T17:29:14.792031 __________________________________________________________________________________________________\n', '2024-03-07T17:29:14.792031 batch_normalization_27 (BatchNo (None, 26, 26, 384)  1152        conv2d_27[0][0]\n', '2024-03-07T17:29:14.792031 __________________________________________________________________________________________________\n', '2024-03-07T17:29:14.792031 batch_normalization_30 (BatchNo (None, 26, 26, 96)   288         conv2d_30[0][0]\n', '2024-03-07T17:29:14.792031 __________________________________________________________________________________________________\n', '2024-03-07T17:29:14.792031 conv2d_114_2 (Conv2D)           (None, 53, 53, 64)   18432       mixed1_2[0][0]\n', '2024-03-07T17:29:14.792031 __________________________________________________________________________________________________\n', '2024-03-07T17:29:14.792031 conv2d_116_2 (Conv2D)           (None, 53, 53, 64)   76800       activation_115_2[0][0]\n', '2024-03-07T17:29:14.792031 __________________________________________________________________________________________________\n', '2024-03-07T17:29:14.792031 conv2d_119_2 (Conv2D)           (None, 53, 53, 96)   82944       activation_118_2[0][0]\n', '2024-03-07T17:29:14.792031 __________________________________________________________________________________________________\n', '2024-03-07T17:29:14.792031 conv2d_120_2 (Conv2D)           (None, 53, 53, 64)   18432       average_pooling2d_12_2[0][0]\n', '2024-03-07T17:29:14.792031 __________________________________________________________________________________________________\n', '2024-03-07T17:29:14.792031 activation_27 (Activation)      (None, 26, 26, 384)  0           batch_normalization_27[0][0]\n', '2024-03-07T17:29:14.792031 __________________________________________________________________________________________________\n', '2024-03-07T17:29:14.792031 activation_30 (Activation)      (None, 26, 26, 96)   0           batch_normalization_30[0][0]\n', '2024-03-07T17:29:14.792031 __________________________________________________________________________________________________\n', '2024-03-07T17:29:14.792031 max_pooling2d_3 (MaxPooling2D)  (None, 26, 26, 288)  0           mixed2[0][0]\n', '2024-03-07T17:29:14.792031 __________________________________________________________________________________________________\n', '2024-03-07T17:29:14.792031 batch_normalization_114_2 (Batc (None, 53, 53, 64)   192         conv2d_114_2[0][0]\n', '2024-03-07T17:29:14.792031 __________________________________________________________________________________________________\n', '2024-03-07T17:29:14.792031 batch_normalization_116_2 (Batc (None, 53, 53, 64)   192         conv2d_116_2[0][0]\n', '2024-03-07T17:29:14.792031 __________________________________________________________________________________________________\n', '2024-03-07T17:29:14.792031 batch_normalization_119_2 (Batc (None, 53, 53, 96)   288         conv2d_119_2[0][0]\n', '2024-03-07T17:29:14.792031 __________________________________________________________________________________________________\n', '2024-03-07T17:29:14.792031 batch_normalization_120_2 (Batc (None, 53, 53, 64)   192         conv2d_120_2[0][0]\n', '2024-03-07T17:29:14.792031 __________________________________________________________________________________________________\n', '2024-03-07T17:29:14.792031 mixed3 (Concatenate)            (None, 26, 26, 768)  0           activation_27[0][0]\n', '2024-03-07T17:29:14.792031                                                                  activation_30[0][0]\n', '2024-03-07T17:29:14.792031                                                                  max_pooling2d_3[0][0]\n', '2024-03-07T17:29:14.792031 __________________________________________________________________________________________________\n', '2024-03-07T17:29:14.792031 activation_114_2 (Activation)   (None, 53, 53, 64)   0           batch_normalization_114_2[0][0]\n', '2024-03-07T17:29:14.792031 __________________________________________________________________________________________________\n', '2024-03-07T17:29:14.792031 activation_116_2 (Activation)   (None, 53, 53, 64)   0           batch_normalization_116_2[0][0]\n', '2024-03-07T17:29:14.792031 __________________________________________________________________________________________________\n', '2024-03-07T17:29:14.792031 activation_119_2 (Activation)   (None, 53, 53, 96)   0           batch_normalization_119_2[0][0]\n', '2024-03-07T17:29:14.792031 __________________________________________________________________________________________________\n', '2024-03-07T17:29:14.792031 activation_120_2 (Activation)   (None, 53, 53, 64)   0           batch_normalization_120_2[0][0]\n', '2024-03-07T17:29:14.792031 __________________________________________________________________________________________________\n', '2024-03-07T17:29:14.792031 conv2d_35 (Conv2D)              (None, 26, 26, 128)  98304       mixed3[0][0]\n', '2024-03-07T17:29:14.792031 __________________________________________________________________________________________________\n', '2024-03-07T17:29:14.792031 mixed2_2 (Concatenate)          (None, 53, 53, 288)  0           activation_114_2[0][0]\n', '2024-03-07T17:29:14.792031                                                                  activation_116_2[0][0]\n', '2024-03-07T17:29:14.792031                                                                  activation_119_2[0][0]\n', '2024-03-07T17:29:14.792031                                                                  activation_120_2[0][0]\n', '2024-03-07T17:29:14.792031 __________________________________________________________________________________________________\n', '2024-03-07T17:29:14.792031 batch_normalization_35 (BatchNo (None, 26, 26, 128)  384         conv2d_35[0][0]\n', '2024-03-07T17:29:14.792031 __________________________________________________________________________________________________\n', '2024-03-07T17:29:14.792031 conv2d_122_2 (Conv2D)           (None, 53, 53, 64)   18432       mixed2_2[0][0]\n', '2024-03-07T17:29:14.792031 __________________________________________________________________________________________________\n', '2024-03-07T17:29:14.792031 activation_35 (Activation)      (None, 26, 26, 128)  0           batch_normalization_35[0][0]\n', '2024-03-07T17:29:14.792031 __________________________________________________________________________________________________\n', '2024-03-07T17:29:14.792031 batch_normalization_122_2 (Batc (None, 53, 53, 64)   192         conv2d_122_2[0][0]\n', '2024-03-07T17:29:14.792031 __________________________________________________________________________________________________\n', '2024-03-07T17:29:14.792031 conv2d_36 (Conv2D)              (None, 26, 26, 128)  114688      activation_35[0][0]\n', '2024-03-07T17:29:14.792031 __________________________________________________________________________________________________\n', '2024-03-07T17:29:14.792031 activation_122_2 (Activation)   (None, 53, 53, 64)   0           batch_normalization_122_2[0][0]\n', '2024-03-07T17:29:14.792031 __________________________________________________________________________________________________\n', '2024-03-07T17:29:14.792031 batch_normalization_36 (BatchNo (None, 26, 26, 128)  384         conv2d_36[0][0]\n', '2024-03-07T17:29:14.792031 __________________________________________________________________________________________________\n', '2024-03-07T17:29:14.792031 conv2d_123_2 (Conv2D)           (None, 53, 53, 96)   55296       activation_122_2[0][0]\n', '2024-03-07T17:29:14.792031 __________________________________________________________________________________________________\n', '2024-03-07T17:29:14.792031 activation_36 (Activation)      (None, 26, 26, 128)  0           batch_normalization_36[0][0]\n', '2024-03-07T17:29:14.792031 __________________________________________________________________________________________________\n', '2024-03-07T17:29:14.792031 batch_normalization_123_2 (Batc (None, 53, 53, 96)   288         conv2d_123_2[0][0]\n', '2024-03-07T17:29:14.792031 __________________________________________________________________________________________________\n', '2024-03-07T17:29:14.792031 conv2d_32 (Conv2D)              (None, 26, 26, 128)  98304       mixed3[0][0]\n', '2024-03-07T17:29:14.792031 __________________________________________________________________________________________________\n', '2024-03-07T17:29:14.792031 conv2d_37 (Conv2D)              (None, 26, 26, 128)  114688      activation_36[0][0]\n', '2024-03-07T17:29:14.792031 __________________________________________________________________________________________________\n', '2024-03-07T17:29:14.792031 activation_123_2 (Activation)   (None, 53, 53, 96)   0           batch_normalization_123_2[0][0]\n', '2024-03-07T17:29:14.792031 __________________________________________________________________________________________________\n', '2024-03-07T17:29:14.792031 batch_normalization_32 (BatchNo (None, 26, 26, 128)  384         conv2d_32[0][0]\n', '2024-03-07T17:29:14.792031 __________________________________________________________________________________________________\n', '2024-03-07T17:29:14.792031 batch_normalization_37 (BatchNo (None, 26, 26, 128)  384         conv2d_37[0][0]\n', '2024-03-07T17:29:14.792031 __________________________________________________________________________________________________\n', '2024-03-07T17:29:14.792031 conv2d_121_2 (Conv2D)           (None, 26, 26, 384)  995328      mixed2_2[0][0]\n', '2024-03-07T17:29:14.792031 __________________________________________________________________________________________________\n', '2024-03-07T17:29:14.792031 conv2d_124_2 (Conv2D)           (None, 26, 26, 96)   82944       activation_123_2[0][0]\n', '2024-03-07T17:29:14.792031 __________________________________________________________________________________________________\n', '2024-03-07T17:29:14.792031 activation_32 (Activation)      (None, 26, 26, 128)  0           batch_normalization_32[0][0]\n', '2024-03-07T17:29:14.792031 __________________________________________________________________________________________________\n', '2024-03-07T17:29:14.792031 activation_37 (Activation)      (None, 26, 26, 128)  0           batch_normalization_37[0][0]\n', '2024-03-07T17:29:14.792031 __________________________________________________________________________________________________\n', '2024-03-07T17:29:14.792031 batch_normalization_121_2 (Batc (None, 26, 26, 384)  1152        conv2d_121_2[0][0]\n', '2024-03-07T17:29:14.792031 __________________________________________________________________________________________________\n', '2024-03-07T17:29:14.792031 batch_normalization_124_2 (Batc (None, 26, 26, 96)   288         conv2d_124_2[0][0]\n', '2024-03-07T17:29:14.792031 __________________________________________________________________________________________________\n', '2024-03-07T17:29:14.792031 conv2d_33 (Conv2D)              (None, 26, 26, 128)  114688      activation_32[0][0]\n', '2024-03-07T17:29:14.792031 __________________________________________________________________________________________________\n', '2024-03-07T17:29:14.792031 conv2d_38 (Conv2D)              (None, 26, 26, 128)  114688      activation_37[0][0]\n', '2024-03-07T17:29:14.792031 __________________________________________________________________________________________________\n', '2024-03-07T17:29:14.792031 activation_121_2 (Activation)   (None, 26, 26, 384)  0           batch_normalization_121_2[0][0]\n', '2024-03-07T17:29:14.792031 __________________________________________________________________________________________________\n', '2024-03-07T17:29:14.792031 activation_124_2 (Activation)   (None, 26, 26, 96)   0           batch_normalization_124_2[0][0]\n', '2024-03-07T17:29:14.792031 __________________________________________________________________________________________________\n', '2024-03-07T17:29:14.792031 max_pooling2d_7_2 (MaxPooling2D (None, 26, 26, 288)  0           mixed2_2[0][0]\n', '2024-03-07T17:29:14.792031 __________________________________________________________________________________________________\n', '2024-03-07T17:29:14.792031 batch_normalization_33 (BatchNo (None, 26, 26, 128)  384         conv2d_33[0][0]\n', '2024-03-07T17:29:14.792031 __________________________________________________________________________________________________\n', '2024-03-07T17:29:14.792031 batch_normalization_38 (BatchNo (None, 26, 26, 128)  384         conv2d_38[0][0]\n', '2024-03-07T17:29:14.792031 __________________________________________________________________________________________________\n', '2024-03-07T17:29:14.792031 mixed3_2 (Concatenate)          (None, 26, 26, 768)  0           activation_121_2[0][0]\n', '2024-03-07T17:29:14.792031                                                                  activation_124_2[0][0]\n', '2024-03-07T17:29:14.792031                                                                  max_pooling2d_7_2[0][0]\n', '2024-03-07T17:29:14.792031 __________________________________________________________________________________________________\n', '2024-03-07T17:29:14.792031 activation_33 (Activation)      (None, 26, 26, 128)  0           batch_normalization_33[0][0]\n', '2024-03-07T17:29:14.792031 __________________________________________________________________________________________________\n', '2024-03-07T17:29:14.792031 activation_38 (Activation)      (None, 26, 26, 128)  0           batch_normalization_38[0][0]\n', '2024-03-07T17:29:14.792031 __________________________________________________________________________________________________\n', '2024-03-07T17:29:14.792031 average_pooling2d_4 (AveragePoo (None, 26, 26, 768)  0           mixed3[0][0]\n', '2024-03-07T17:29:14.792031 __________________________________________________________________________________________________\n', '2024-03-07T17:29:14.792031 conv2d_129_2 (Conv2D)           (None, 26, 26, 128)  98304       mixed3_2[0][0]\n', '2024-03-07T17:29:14.792031 __________________________________________________________________________________________________\n', '2024-03-07T17:29:14.792031 conv2d_31 (Conv2D)              (None, 26, 26, 192)  147456      mixed3[0][0]\n', '2024-03-07T17:29:14.792031 __________________________________________________________________________________________________\n', '2024-03-07T17:29:14.792031 conv2d_34 (Conv2D)              (None, 26, 26, 192)  172032      activation_33[0][0]\n', '2024-03-07T17:29:14.792031 __________________________________________________________________________________________________\n', '2024-03-07T17:29:14.792031 conv2d_39 (Conv2D)              (None, 26, 26, 192)  172032      activation_38[0][0]\n', '2024-03-07T17:29:14.792031 __________________________________________________________________________________________________\n', '2024-03-07T17:29:14.792031 conv2d_40 (Conv2D)              (None, 26, 26, 192)  147456      average_pooling2d_4[0][0]\n', '2024-03-07T17:29:14.792031 __________________________________________________________________________________________________\n', '2024-03-07T17:29:14.792031 batch_normalization_129_2 (Batc (None, 26, 26, 128)  384         conv2d_129_2[0][0]\n', '2024-03-07T17:29:14.792031 __________________________________________________________________________________________________\n', '2024-03-07T17:29:14.792031 batch_normalization_31 (BatchNo (None, 26, 26, 192)  576         conv2d_31[0][0]\n', '2024-03-07T17:29:14.792031 __________________________________________________________________________________________________\n', '2024-03-07T17:29:14.792031 batch_normalization_34 (BatchNo (None, 26, 26, 192)  576         conv2d_34[0][0]\n', '2024-03-07T17:29:14.792031 __________________________________________________________________________________________________\n', '2024-03-07T17:29:14.792031 batch_normalization_39 (BatchNo (None, 26, 26, 192)  576         conv2d_39[0][0]\n', '2024-03-07T17:29:14.792031 __________________________________________________________________________________________________\n', '2024-03-07T17:29:14.792031 batch_normalization_40 (BatchNo (None, 26, 26, 192)  576         conv2d_40[0][0]\n', '2024-03-07T17:29:14.792031 __________________________________________________________________________________________________\n', '2024-03-07T17:29:14.792031 activation_129_2 (Activation)   (None, 26, 26, 128)  0           batch_normalization_129_2[0][0]\n', '2024-03-07T17:29:14.792031 __________________________________________________________________________________________________\n', '2024-03-07T17:29:14.792031 activation_31 (Activation)      (None, 26, 26, 192)  0           batch_normalization_31[0][0]\n', '2024-03-07T17:29:14.792031 __________________________________________________________________________________________________\n', '2024-03-07T17:29:14.792031 activation_34 (Activation)      (None, 26, 26, 192)  0           batch_normalization_34[0][0]\n', '2024-03-07T17:29:14.792031 __________________________________________________________________________________________________\n', '2024-03-07T17:29:14.792031 activation_39 (Activation)      (None, 26, 26, 192)  0           batch_normalization_39[0][0]\n', '2024-03-07T17:29:14.792031 __________________________________________________________________________________________________\n', '2024-03-07T17:29:14.792031 activation_40 (Activation)      (None, 26, 26, 192)  0           batch_normalization_40[0][0]\n', '2024-03-07T17:29:14.792031 __________________________________________________________________________________________________\n', '2024-03-07T17:29:14.792031 conv2d_130_2 (Conv2D)           (None, 26, 26, 128)  114688      activation_129_2[0][0]\n', '2024-03-07T17:29:14.792031 __________________________________________________________________________________________________\n', '2024-03-07T17:29:14.792031 mixed4 (Concatenate)            (None, 26, 26, 768)  0           activation_31[0][0]\n', '2024-03-07T17:29:14.792031                                                                  activation_34[0][0]\n', '2024-03-07T17:29:14.792031                                                                  activation_39[0][0]\n', '2024-03-07T17:29:14.792031                                                                  activation_40[0][0]\n', '2024-03-07T17:29:14.792031 __________________________________________________________________________________________________\n', '2024-03-07T17:29:14.792031 batch_normalization_130_2 (Batc (None, 26, 26, 128)  384         conv2d_130_2[0][0]\n', '2024-03-07T17:29:14.792031 __________________________________________________________________________________________________\n', '2024-03-07T17:29:14.792031 conv2d_45 (Conv2D)              (None, 26, 26, 160)  122880      mixed4[0][0]\n', '2024-03-07T17:29:14.792031 __________________________________________________________________________________________________\n', '2024-03-07T17:29:14.792031 activation_130_2 (Activation)   (None, 26, 26, 128)  0           batch_normalization_130_2[0][0]\n', '2024-03-07T17:29:14.792031 __________________________________________________________________________________________________\n', '2024-03-07T17:29:14.792031 batch_normalization_45 (BatchNo (None, 26, 26, 160)  480         conv2d_45[0][0]\n', '2024-03-07T17:29:14.792031 __________________________________________________________________________________________________\n', '2024-03-07T17:29:14.792031 conv2d_126_2 (Conv2D)           (None, 26, 26, 128)  98304       mixed3_2[0][0]\n', '2024-03-07T17:29:14.792031 __________________________________________________________________________________________________\n', '2024-03-07T17:29:14.792031 conv2d_131_2 (Conv2D)           (None, 26, 26, 128)  114688      activation_130_2[0][0]\n', '2024-03-07T17:29:14.792031 __________________________________________________________________________________________________\n', '2024-03-07T17:29:14.792031 activation_45 (Activation)      (None, 26, 26, 160)  0           batch_normalization_45[0][0]\n', '2024-03-07T17:29:14.792031 __________________________________________________________________________________________________\n', '2024-03-07T17:29:14.792031 batch_normalization_126_2 (Batc (None, 26, 26, 128)  384         conv2d_126_2[0][0]\n', '2024-03-07T17:29:14.792031 __________________________________________________________________________________________________\n', '2024-03-07T17:29:14.792031 batch_normalization_131_2 (Batc (None, 26, 26, 128)  384         conv2d_131_2[0][0]\n', '2024-03-07T17:29:14.792031 __________________________________________________________________________________________________\n', '2024-03-07T17:29:14.792031 conv2d_46 (Conv2D)              (None, 26, 26, 160)  179200      activation_45[0][0]\n', '2024-03-07T17:29:14.792031 __________________________________________________________________________________________________\n', '2024-03-07T17:29:14.792031 activation_126_2 (Activation)   (None, 26, 26, 128)  0           batch_normalization_126_2[0][0]\n', '2024-03-07T17:29:14.792031 __________________________________________________________________________________________________\n', '2024-03-07T17:29:14.792031 activation_131_2 (Activation)   (None, 26, 26, 128)  0           batch_normalization_131_2[0][0]\n', '2024-03-07T17:29:14.792031 __________________________________________________________________________________________________\n', '2024-03-07T17:29:14.792031 batch_normalization_46 (BatchNo (None, 26, 26, 160)  480         conv2d_46[0][0]\n', '2024-03-07T17:29:14.792031 __________________________________________________________________________________________________\n', '2024-03-07T17:29:14.792031 conv2d_127_2 (Conv2D)           (None, 26, 26, 128)  114688      activation_126_2[0][0]\n', '2024-03-07T17:29:14.792031 __________________________________________________________________________________________________\n', '2024-03-07T17:29:14.792031 conv2d_132_2 (Conv2D)           (None, 26, 26, 128)  114688      activation_131_2[0][0]\n', '2024-03-07T17:29:14.792031 __________________________________________________________________________________________________\n', '2024-03-07T17:29:14.792031 activation_46 (Activation)      (None, 26, 26, 160)  0           batch_normalization_46[0][0]\n', '2024-03-07T17:29:14.792031 __________________________________________________________________________________________________\n', '2024-03-07T17:29:14.792031 batch_normalization_127_2 (Batc (None, 26, 26, 128)  384         conv2d_127_2[0][0]\n', '2024-03-07T17:29:14.792031 __________________________________________________________________________________________________\n', '2024-03-07T17:29:14.792031 batch_normalization_132_2 (Batc (None, 26, 26, 128)  384         conv2d_132_2[0][0]\n', '2024-03-07T17:29:14.792031 __________________________________________________________________________________________________\n', '2024-03-07T17:29:14.792031 conv2d_42 (Conv2D)              (None, 26, 26, 160)  122880      mixed4[0][0]\n', '2024-03-07T17:29:14.792031 __________________________________________________________________________________________________\n', '2024-03-07T17:29:14.792031 conv2d_47 (Conv2D)              (None, 26, 26, 160)  179200      activation_46[0][0]\n', '2024-03-07T17:29:14.792031 __________________________________________________________________________________________________\n', '2024-03-07T17:29:14.792031 activation_127_2 (Activation)   (None, 26, 26, 128)  0           batch_normalization_127_2[0][0]\n', '2024-03-07T17:29:14.792031 __________________________________________________________________________________________________\n', '2024-03-07T17:29:14.792031 activation_132_2 (Activation)   (None, 26, 26, 128)  0           batch_normalization_132_2[0][0]\n', '2024-03-07T17:29:14.792031 __________________________________________________________________________________________________\n', '2024-03-07T17:29:14.792031 average_pooling2d_13_2 (Average (None, 26, 26, 768)  0           mixed3_2[0][0]\n', '2024-03-07T17:29:14.792031 __________________________________________________________________________________________________\n', '2024-03-07T17:29:14.792031 batch_normalization_42 (BatchNo (None, 26, 26, 160)  480         conv2d_42[0][0]\n', '2024-03-07T17:29:14.792031 __________________________________________________________________________________________________\n', '2024-03-07T17:29:14.792031 batch_normalization_47 (BatchNo (None, 26, 26, 160)  480         conv2d_47[0][0]\n', '2024-03-07T17:29:14.792031 __________________________________________________________________________________________________\n', '2024-03-07T17:29:14.792031 conv2d_125_2 (Conv2D)           (None, 26, 26, 192)  147456      mixed3_2[0][0]\n', '2024-03-07T17:29:14.792031 __________________________________________________________________________________________________\n', '2024-03-07T17:29:14.792031 conv2d_128_2 (Conv2D)           (None, 26, 26, 192)  172032      activation_127_2[0][0]\n', '2024-03-07T17:29:14.792031 __________________________________________________________________________________________________\n', '2024-03-07T17:29:14.792031 conv2d_133_2 (Conv2D)           (None, 26, 26, 192)  172032      activation_132_2[0][0]\n', '2024-03-07T17:29:14.792031 __________________________________________________________________________________________________\n', '2024-03-07T17:29:14.792031 conv2d_134_2 (Conv2D)           (None, 26, 26, 192)  147456      average_pooling2d_13_2[0][0]\n', '2024-03-07T17:29:14.792031 __________________________________________________________________________________________________\n', '2024-03-07T17:29:14.792031 activation_42 (Activation)      (None, 26, 26, 160)  0           batch_normalization_42[0][0]\n', '2024-03-07T17:29:14.792031 __________________________________________________________________________________________________\n', '2024-03-07T17:29:14.792031 activation_47 (Activation)      (None, 26, 26, 160)  0           batch_normalization_47[0][0]\n', '2024-03-07T17:29:14.792031 __________________________________________________________________________________________________\n', '2024-03-07T17:29:14.792031 batch_normalization_125_2 (Batc (None, 26, 26, 192)  576         conv2d_125_2[0][0]\n', '2024-03-07T17:29:14.792031 __________________________________________________________________________________________________\n', '2024-03-07T17:29:14.792031 batch_normalization_128_2 (Batc (None, 26, 26, 192)  576         conv2d_128_2[0][0]\n', '2024-03-07T17:29:14.792031 __________________________________________________________________________________________________\n', '2024-03-07T17:29:14.792031 batch_normalization_133_2 (Batc (None, 26, 26, 192)  576         conv2d_133_2[0][0]\n', '2024-03-07T17:29:14.792031 __________________________________________________________________________________________________\n', '2024-03-07T17:29:14.792031 batch_normalization_134_2 (Batc (None, 26, 26, 192)  576         conv2d_134_2[0][0]\n', '2024-03-07T17:29:14.792031 __________________________________________________________________________________________________\n', '2024-03-07T17:29:14.792031 conv2d_43 (Conv2D)              (None, 26, 26, 160)  179200      activation_42[0][0]\n', '2024-03-07T17:29:14.792031 __________________________________________________________________________________________________\n', '2024-03-07T17:29:14.792031 conv2d_48 (Conv2D)              (None, 26, 26, 160)  179200      activation_47[0][0]\n', '2024-03-07T17:29:14.792031 __________________________________________________________________________________________________\n', '2024-03-07T17:29:14.792031 activation_125_2 (Activation)   (None, 26, 26, 192)  0           batch_normalization_125_2[0][0]\n', '2024-03-07T17:29:14.792031 __________________________________________________________________________________________________\n', '2024-03-07T17:29:14.792031 activation_128_2 (Activation)   (None, 26, 26, 192)  0           batch_normalization_128_2[0][0]\n', '2024-03-07T17:29:14.792031 __________________________________________________________________________________________________\n', '2024-03-07T17:29:14.792031 activation_133_2 (Activation)   (None, 26, 26, 192)  0           batch_normalization_133_2[0][0]\n', '2024-03-07T17:29:14.792031 __________________________________________________________________________________________________\n', '2024-03-07T17:29:14.792031 activation_134_2 (Activation)   (None, 26, 26, 192)  0           batch_normalization_134_2[0][0]\n', '2024-03-07T17:29:14.792031 __________________________________________________________________________________________________\n', '2024-03-07T17:29:14.792031 batch_normalization_43 (BatchNo (None, 26, 26, 160)  480         conv2d_43[0][0]\n', '2024-03-07T17:29:14.792031 __________________________________________________________________________________________________\n', '2024-03-07T17:29:14.792031 batch_normalization_48 (BatchNo (None, 26, 26, 160)  480         conv2d_48[0][0]\n', '2024-03-07T17:29:14.792031 __________________________________________________________________________________________________\n', '2024-03-07T17:29:14.792031 mixed4_2 (Concatenate)          (None, 26, 26, 768)  0           activation_125_2[0][0]\n', '2024-03-07T17:29:14.792031                                                                  activation_128_2[0][0]\n', '2024-03-07T17:29:14.792031                                                                  activation_133_2[0][0]\n', '2024-03-07T17:29:14.792031                                                                  activation_134_2[0][0]\n', '2024-03-07T17:29:14.792031 __________________________________________________________________________________________________\n', '2024-03-07T17:29:14.792031 activation_43 (Activation)      (None, 26, 26, 160)  0           batch_normalization_43[0][0]\n', '2024-03-07T17:29:14.792031 __________________________________________________________________________________________________\n', '2024-03-07T17:29:14.792031 activation_48 (Activation)      (None, 26, 26, 160)  0           batch_normalization_48[0][0]\n', '2024-03-07T17:29:14.792031 __________________________________________________________________________________________________\n', '2024-03-07T17:29:14.792031 average_pooling2d_5 (AveragePoo (None, 26, 26, 768)  0           mixed4[0][0]\n', '2024-03-07T17:29:14.792031 __________________________________________________________________________________________________\n', '2024-03-07T17:29:14.792031 conv2d_139_2 (Conv2D)           (None, 26, 26, 160)  122880      mixed4_2[0][0]\n', '2024-03-07T17:29:14.792031 __________________________________________________________________________________________________\n', '2024-03-07T17:29:14.792031 conv2d_41 (Conv2D)              (None, 26, 26, 192)  147456      mixed4[0][0]\n', '2024-03-07T17:29:14.792031 __________________________________________________________________________________________________\n', '2024-03-07T17:29:14.792031 conv2d_44 (Conv2D)              (None, 26, 26, 192)  215040      activation_43[0][0]\n', '2024-03-07T17:29:14.792031 __________________________________________________________________________________________________\n', '2024-03-07T17:29:14.792031 conv2d_49 (Conv2D)              (None, 26, 26, 192)  215040      activation_48[0][0]\n', '2024-03-07T17:29:14.792031 __________________________________________________________________________________________________\n', '2024-03-07T17:29:14.792031 conv2d_50 (Conv2D)              (None, 26, 26, 192)  147456      average_pooling2d_5[0][0]\n', '2024-03-07T17:29:14.792031 __________________________________________________________________________________________________\n', '2024-03-07T17:29:14.792031 batch_normalization_139_2 (Batc (None, 26, 26, 160)  480         conv2d_139_2[0][0]\n', '2024-03-07T17:29:14.792031 __________________________________________________________________________________________________\n', '2024-03-07T17:29:14.792031 batch_normalization_41 (BatchNo (None, 26, 26, 192)  576         conv2d_41[0][0]\n', '2024-03-07T17:29:14.792031 __________________________________________________________________________________________________\n', '2024-03-07T17:29:14.792031 batch_normalization_44 (BatchNo (None, 26, 26, 192)  576         conv2d_44[0][0]\n', '2024-03-07T17:29:14.792031 __________________________________________________________________________________________________\n', '2024-03-07T17:29:14.792031 batch_normalization_49 (BatchNo (None, 26, 26, 192)  576         conv2d_49[0][0]\n', '2024-03-07T17:29:14.792031 __________________________________________________________________________________________________\n', '2024-03-07T17:29:14.792031 batch_normalization_50 (BatchNo (None, 26, 26, 192)  576         conv2d_50[0][0]\n', '2024-03-07T17:29:14.792031 __________________________________________________________________________________________________\n', '2024-03-07T17:29:14.792031 activation_139_2 (Activation)   (None, 26, 26, 160)  0           batch_normalization_139_2[0][0]\n', '2024-03-07T17:29:14.792031 __________________________________________________________________________________________________\n', '2024-03-07T17:29:14.792031 activation_41 (Activation)      (None, 26, 26, 192)  0           batch_normalization_41[0][0]\n', '2024-03-07T17:29:14.792031 __________________________________________________________________________________________________\n', '2024-03-07T17:29:14.792031 activation_44 (Activation)      (None, 26, 26, 192)  0           batch_normalization_44[0][0]\n', '2024-03-07T17:29:14.792031 __________________________________________________________________________________________________\n', '2024-03-07T17:29:14.792031 activation_49 (Activation)      (None, 26, 26, 192)  0           batch_normalization_49[0][0]\n', '2024-03-07T17:29:14.792031 __________________________________________________________________________________________________\n', '2024-03-07T17:29:14.792031 activation_50 (Activation)      (None, 26, 26, 192)  0           batch_normalization_50[0][0]\n', '2024-03-07T17:29:14.792031 __________________________________________________________________________________________________\n', '2024-03-07T17:29:14.792031 conv2d_140_2 (Conv2D)           (None, 26, 26, 160)  179200      activation_139_2[0][0]\n', '2024-03-07T17:29:14.792031 __________________________________________________________________________________________________\n', '2024-03-07T17:29:14.792031 mixed5 (Concatenate)            (None, 26, 26, 768)  0           activation_41[0][0]\n', '2024-03-07T17:29:14.792031                                                                  activation_44[0][0]\n', '2024-03-07T17:29:14.792031                                                                  activation_49[0][0]\n', '2024-03-07T17:29:14.792031                                                                  activation_50[0][0]\n', '2024-03-07T17:29:14.792031 __________________________________________________________________________________________________\n', '2024-03-07T17:29:14.792031 batch_normalization_140_2 (Batc (None, 26, 26, 160)  480         conv2d_140_2[0][0]\n', '2024-03-07T17:29:14.792031 __________________________________________________________________________________________________\n', '2024-03-07T17:29:14.792031 conv2d_55 (Conv2D)              (None, 26, 26, 160)  122880      mixed5[0][0]\n', '2024-03-07T17:29:14.792031 __________________________________________________________________________________________________\n', '2024-03-07T17:29:14.792031 activation_140_2 (Activation)   (None, 26, 26, 160)  0           batch_normalization_140_2[0][0]\n', '2024-03-07T17:29:14.792031 __________________________________________________________________________________________________\n', '2024-03-07T17:29:14.792031 batch_normalization_55 (BatchNo (None, 26, 26, 160)  480         conv2d_55[0][0]\n', '2024-03-07T17:29:14.792031 __________________________________________________________________________________________________\n', '2024-03-07T17:29:14.792031 conv2d_136_2 (Conv2D)           (None, 26, 26, 160)  122880      mixed4_2[0][0]\n', '2024-03-07T17:29:14.792031 __________________________________________________________________________________________________\n', '2024-03-07T17:29:14.792031 conv2d_141_2 (Conv2D)           (None, 26, 26, 160)  179200      activation_140_2[0][0]\n', '2024-03-07T17:29:14.792031 __________________________________________________________________________________________________\n', '2024-03-07T17:29:14.792031 activation_55 (Activation)      (None, 26, 26, 160)  0           batch_normalization_55[0][0]\n', '2024-03-07T17:29:14.792031 __________________________________________________________________________________________________\n', '2024-03-07T17:29:14.792031 batch_normalization_136_2 (Batc (None, 26, 26, 160)  480         conv2d_136_2[0][0]\n', '2024-03-07T17:29:14.792031 __________________________________________________________________________________________________\n', '2024-03-07T17:29:14.792031 batch_normalization_141_2 (Batc (None, 26, 26, 160)  480         conv2d_141_2[0][0]\n', '2024-03-07T17:29:14.792031 __________________________________________________________________________________________________\n', '2024-03-07T17:29:14.792031 conv2d_56 (Conv2D)              (None, 26, 26, 160)  179200      activation_55[0][0]\n', '2024-03-07T17:29:14.792031 __________________________________________________________________________________________________\n', '2024-03-07T17:29:14.792031 activation_136_2 (Activation)   (None, 26, 26, 160)  0           batch_normalization_136_2[0][0]\n', '2024-03-07T17:29:14.792031 __________________________________________________________________________________________________\n', '2024-03-07T17:29:14.792031 activation_141_2 (Activation)   (None, 26, 26, 160)  0           batch_normalization_141_2[0][0]\n', '2024-03-07T17:29:14.792031 __________________________________________________________________________________________________\n', '2024-03-07T17:29:14.792031 batch_normalization_56 (BatchNo (None, 26, 26, 160)  480         conv2d_56[0][0]\n', '2024-03-07T17:29:14.792031 __________________________________________________________________________________________________\n', '2024-03-07T17:29:14.792031 conv2d_137_2 (Conv2D)           (None, 26, 26, 160)  179200      activation_136_2[0][0]\n', '2024-03-07T17:29:14.792031 __________________________________________________________________________________________________\n', '2024-03-07T17:29:14.792031 conv2d_142_2 (Conv2D)           (None, 26, 26, 160)  179200      activation_141_2[0][0]\n', '2024-03-07T17:29:14.792031 __________________________________________________________________________________________________\n', '2024-03-07T17:29:14.792031 activation_56 (Activation)      (None, 26, 26, 160)  0           batch_normalization_56[0][0]\n', '2024-03-07T17:29:14.792031 __________________________________________________________________________________________________\n', '2024-03-07T17:29:14.792031 batch_normalization_137_2 (Batc (None, 26, 26, 160)  480         conv2d_137_2[0][0]\n', '2024-03-07T17:29:14.792031 __________________________________________________________________________________________________\n', '2024-03-07T17:29:14.792031 batch_normalization_142_2 (Batc (None, 26, 26, 160)  480         conv2d_142_2[0][0]\n', '2024-03-07T17:29:14.792031 __________________________________________________________________________________________________\n', '2024-03-07T17:29:14.792031 conv2d_52 (Conv2D)              (None, 26, 26, 160)  122880      mixed5[0][0]\n', '2024-03-07T17:29:14.792031 __________________________________________________________________________________________________\n', '2024-03-07T17:29:14.792031 conv2d_57 (Conv2D)              (None, 26, 26, 160)  179200      activation_56[0][0]\n', '2024-03-07T17:29:14.792031 __________________________________________________________________________________________________\n', '2024-03-07T17:29:14.792031 activation_137_2 (Activation)   (None, 26, 26, 160)  0           batch_normalization_137_2[0][0]\n', '2024-03-07T17:29:14.792031 __________________________________________________________________________________________________\n', '2024-03-07T17:29:14.792031 activation_142_2 (Activation)   (None, 26, 26, 160)  0           batch_normalization_142_2[0][0]\n', '2024-03-07T17:29:14.792031 __________________________________________________________________________________________________\n', '2024-03-07T17:29:14.792031 average_pooling2d_14_2 (Average (None, 26, 26, 768)  0           mixed4_2[0][0]\n', '2024-03-07T17:29:14.792031 __________________________________________________________________________________________________\n', '2024-03-07T17:29:14.792031 batch_normalization_52 (BatchNo (None, 26, 26, 160)  480         conv2d_52[0][0]\n', '2024-03-07T17:29:14.792031 __________________________________________________________________________________________________\n', '2024-03-07T17:29:14.792031 batch_normalization_57 (BatchNo (None, 26, 26, 160)  480         conv2d_57[0][0]\n', '2024-03-07T17:29:14.792031 __________________________________________________________________________________________________\n', '2024-03-07T17:29:14.792031 conv2d_135_2 (Conv2D)           (None, 26, 26, 192)  147456      mixed4_2[0][0]\n', '2024-03-07T17:29:14.792031 __________________________________________________________________________________________________\n', '2024-03-07T17:29:14.792031 conv2d_138_2 (Conv2D)           (None, 26, 26, 192)  215040      activation_137_2[0][0]\n', '2024-03-07T17:29:14.792031 __________________________________________________________________________________________________\n', '2024-03-07T17:29:14.792031 conv2d_143_2 (Conv2D)           (None, 26, 26, 192)  215040      activation_142_2[0][0]\n', '2024-03-07T17:29:14.792031 __________________________________________________________________________________________________\n', '2024-03-07T17:29:14.792031 conv2d_144_2 (Conv2D)           (None, 26, 26, 192)  147456      average_pooling2d_14_2[0][0]\n', '2024-03-07T17:29:14.792031 __________________________________________________________________________________________________\n', '2024-03-07T17:29:14.792031 activation_52 (Activation)      (None, 26, 26, 160)  0           batch_normalization_52[0][0]\n', '2024-03-07T17:29:14.792031 __________________________________________________________________________________________________\n', '2024-03-07T17:29:14.792031 activation_57 (Activation)      (None, 26, 26, 160)  0           batch_normalization_57[0][0]\n', '2024-03-07T17:29:14.792031 __________________________________________________________________________________________________\n', '2024-03-07T17:29:14.792031 batch_normalization_135_2 (Batc (None, 26, 26, 192)  576         conv2d_135_2[0][0]\n', '2024-03-07T17:29:14.792031 __________________________________________________________________________________________________\n', '2024-03-07T17:29:14.792031 batch_normalization_138_2 (Batc (None, 26, 26, 192)  576         conv2d_138_2[0][0]\n', '2024-03-07T17:29:14.792031 __________________________________________________________________________________________________\n', '2024-03-07T17:29:14.792031 batch_normalization_143_2 (Batc (None, 26, 26, 192)  576         conv2d_143_2[0][0]\n', '2024-03-07T17:29:14.792031 __________________________________________________________________________________________________\n', '2024-03-07T17:29:14.792031 batch_normalization_144_2 (Batc (None, 26, 26, 192)  576         conv2d_144_2[0][0]\n', '2024-03-07T17:29:14.792031 __________________________________________________________________________________________________\n', '2024-03-07T17:29:14.792031 conv2d_53 (Conv2D)              (None, 26, 26, 160)  179200      activation_52[0][0]\n', '2024-03-07T17:29:14.792031 __________________________________________________________________________________________________\n', '2024-03-07T17:29:14.792031 conv2d_58 (Conv2D)              (None, 26, 26, 160)  179200      activation_57[0][0]\n', '2024-03-07T17:29:14.792031 __________________________________________________________________________________________________\n', '2024-03-07T17:29:14.792031 activation_135_2 (Activation)   (None, 26, 26, 192)  0           batch_normalization_135_2[0][0]\n', '2024-03-07T17:29:14.792031 __________________________________________________________________________________________________\n', '2024-03-07T17:29:14.792031 activation_138_2 (Activation)   (None, 26, 26, 192)  0           batch_normalization_138_2[0][0]\n', '2024-03-07T17:29:14.792031 __________________________________________________________________________________________________\n', '2024-03-07T17:29:14.792031 activation_143_2 (Activation)   (None, 26, 26, 192)  0           batch_normalization_143_2[0][0]\n', '2024-03-07T17:29:14.792031 __________________________________________________________________________________________________\n', '2024-03-07T17:29:14.792031 activation_144_2 (Activation)   (None, 26, 26, 192)  0           batch_normalization_144_2[0][0]\n', '2024-03-07T17:29:14.792031 __________________________________________________________________________________________________\n', '2024-03-07T17:29:14.792031 batch_normalization_53 (BatchNo (None, 26, 26, 160)  480         conv2d_53[0][0]\n', '2024-03-07T17:29:14.792031 __________________________________________________________________________________________________\n', '2024-03-07T17:29:14.792031 batch_normalization_58 (BatchNo (None, 26, 26, 160)  480         conv2d_58[0][0]\n', '2024-03-07T17:29:14.792031 __________________________________________________________________________________________________\n', '2024-03-07T17:29:14.792031 mixed5_2 (Concatenate)          (None, 26, 26, 768)  0           activation_135_2[0][0]\n', '2024-03-07T17:29:14.792031                                                                  activation_138_2[0][0]\n', '2024-03-07T17:29:14.792031                                                                  activation_143_2[0][0]\n', '2024-03-07T17:29:14.792031                                                                  activation_144_2[0][0]\n', '2024-03-07T17:29:14.792031 __________________________________________________________________________________________________\n', '2024-03-07T17:29:14.792031 activation_53 (Activation)      (None, 26, 26, 160)  0           batch_normalization_53[0][0]\n', '2024-03-07T17:29:14.792031 __________________________________________________________________________________________________\n', '2024-03-07T17:29:14.792031 activation_58 (Activation)      (None, 26, 26, 160)  0           batch_normalization_58[0][0]\n', '2024-03-07T17:29:14.792031 __________________________________________________________________________________________________\n', '2024-03-07T17:29:14.792031 average_pooling2d_6 (AveragePoo (None, 26, 26, 768)  0           mixed5[0][0]\n', '2024-03-07T17:29:14.792031 __________________________________________________________________________________________________\n', '2024-03-07T17:29:14.792031 conv2d_149_2 (Conv2D)           (None, 26, 26, 160)  122880      mixed5_2[0][0]\n', '2024-03-07T17:29:14.792031 __________________________________________________________________________________________________\n', '2024-03-07T17:29:14.792031 conv2d_51 (Conv2D)              (None, 26, 26, 192)  147456      mixed5[0][0]\n', '2024-03-07T17:29:14.792031 __________________________________________________________________________________________________\n', '2024-03-07T17:29:14.792031 conv2d_54 (Conv2D)              (None, 26, 26, 192)  215040      activation_53[0][0]\n', '2024-03-07T17:29:14.792031 __________________________________________________________________________________________________\n', '2024-03-07T17:29:14.792031 conv2d_59 (Conv2D)              (None, 26, 26, 192)  215040      activation_58[0][0]\n', '2024-03-07T17:29:14.792031 __________________________________________________________________________________________________\n', '2024-03-07T17:29:14.792031 conv2d_60 (Conv2D)              (None, 26, 26, 192)  147456      average_pooling2d_6[0][0]\n', '2024-03-07T17:29:14.792031 __________________________________________________________________________________________________\n', '2024-03-07T17:29:14.792031 batch_normalization_149_2 (Batc (None, 26, 26, 160)  480         conv2d_149_2[0][0]\n', '2024-03-07T17:29:14.792031 __________________________________________________________________________________________________\n', '2024-03-07T17:29:14.792031 batch_normalization_51 (BatchNo (None, 26, 26, 192)  576         conv2d_51[0][0]\n', '2024-03-07T17:29:14.792031 __________________________________________________________________________________________________\n', '2024-03-07T17:29:14.792031 batch_normalization_54 (BatchNo (None, 26, 26, 192)  576         conv2d_54[0][0]\n', '2024-03-07T17:29:14.792031 __________________________________________________________________________________________________\n', '2024-03-07T17:29:14.792031 batch_normalization_59 (BatchNo (None, 26, 26, 192)  576         conv2d_59[0][0]\n', '2024-03-07T17:29:14.792031 __________________________________________________________________________________________________\n', '2024-03-07T17:29:14.792031 batch_normalization_60 (BatchNo (None, 26, 26, 192)  576         conv2d_60[0][0]\n', '2024-03-07T17:29:14.792031 __________________________________________________________________________________________________\n', '2024-03-07T17:29:14.792031 activation_149_2 (Activation)   (None, 26, 26, 160)  0           batch_normalization_149_2[0][0]\n', '2024-03-07T17:29:14.792031 __________________________________________________________________________________________________\n', '2024-03-07T17:29:14.792031 activation_51 (Activation)      (None, 26, 26, 192)  0           batch_normalization_51[0][0]\n', '2024-03-07T17:29:14.792031 __________________________________________________________________________________________________\n', '2024-03-07T17:29:14.792031 activation_54 (Activation)      (None, 26, 26, 192)  0           batch_normalization_54[0][0]\n', '2024-03-07T17:29:14.792031 __________________________________________________________________________________________________\n', '2024-03-07T17:29:14.792031 activation_59 (Activation)      (None, 26, 26, 192)  0           batch_normalization_59[0][0]\n', '2024-03-07T17:29:14.792031 __________________________________________________________________________________________________\n', '2024-03-07T17:29:14.792031 activation_60 (Activation)      (None, 26, 26, 192)  0           batch_normalization_60[0][0]\n', '2024-03-07T17:29:14.792031 __________________________________________________________________________________________________\n', '2024-03-07T17:29:14.792031 conv2d_150_2 (Conv2D)           (None, 26, 26, 160)  179200      activation_149_2[0][0]\n', '2024-03-07T17:29:14.792031 __________________________________________________________________________________________________\n', '2024-03-07T17:29:14.792031 mixed6 (Concatenate)            (None, 26, 26, 768)  0           activation_51[0][0]\n', '2024-03-07T17:29:14.792031                                                                  activation_54[0][0]\n', '2024-03-07T17:29:14.792031                                                                  activation_59[0][0]\n', '2024-03-07T17:29:14.792031                                                                  activation_60[0][0]\n', '2024-03-07T17:29:14.792031 __________________________________________________________________________________________________\n', '2024-03-07T17:29:14.792031 batch_normalization_150_2 (Batc (None, 26, 26, 160)  480         conv2d_150_2[0][0]\n', '2024-03-07T17:29:14.792031 __________________________________________________________________________________________________\n', '2024-03-07T17:29:14.792031 conv2d_65 (Conv2D)              (None, 26, 26, 192)  147456      mixed6[0][0]\n', '2024-03-07T17:29:14.792031 __________________________________________________________________________________________________\n', '2024-03-07T17:29:14.792031 activation_150_2 (Activation)   (None, 26, 26, 160)  0           batch_normalization_150_2[0][0]\n', '2024-03-07T17:29:14.792031 __________________________________________________________________________________________________\n', '2024-03-07T17:29:14.792031 batch_normalization_65 (BatchNo (None, 26, 26, 192)  576         conv2d_65[0][0]\n', '2024-03-07T17:29:14.792031 __________________________________________________________________________________________________\n', '2024-03-07T17:29:14.792031 conv2d_146_2 (Conv2D)           (None, 26, 26, 160)  122880      mixed5_2[0][0]\n', '2024-03-07T17:29:14.792031 __________________________________________________________________________________________________\n', '2024-03-07T17:29:14.792031 conv2d_151_2 (Conv2D)           (None, 26, 26, 160)  179200      activation_150_2[0][0]\n', '2024-03-07T17:29:14.792031 __________________________________________________________________________________________________\n', '2024-03-07T17:29:14.792031 activation_65 (Activation)      (None, 26, 26, 192)  0           batch_normalization_65[0][0]\n', '2024-03-07T17:29:14.792031 __________________________________________________________________________________________________\n', '2024-03-07T17:29:14.792031 batch_normalization_146_2 (Batc (None, 26, 26, 160)  480         conv2d_146_2[0][0]\n', '2024-03-07T17:29:14.792031 __________________________________________________________________________________________________\n', '2024-03-07T17:29:14.792031 batch_normalization_151_2 (Batc (None, 26, 26, 160)  480         conv2d_151_2[0][0]\n', '2024-03-07T17:29:14.792031 __________________________________________________________________________________________________\n', '2024-03-07T17:29:14.792031 conv2d_66 (Conv2D)              (None, 26, 26, 192)  258048      activation_65[0][0]\n', '2024-03-07T17:29:14.792031 __________________________________________________________________________________________________\n', '2024-03-07T17:29:14.792031 activation_146_2 (Activation)   (None, 26, 26, 160)  0           batch_normalization_146_2[0][0]\n', '2024-03-07T17:29:14.792031 __________________________________________________________________________________________________\n', '2024-03-07T17:29:14.792031 activation_151_2 (Activation)   (None, 26, 26, 160)  0           batch_normalization_151_2[0][0]\n', '2024-03-07T17:29:14.792031 __________________________________________________________________________________________________\n', '2024-03-07T17:29:14.792031 batch_normalization_66 (BatchNo (None, 26, 26, 192)  576         conv2d_66[0][0]\n', '2024-03-07T17:29:14.792031 __________________________________________________________________________________________________\n', '2024-03-07T17:29:14.792031 conv2d_147_2 (Conv2D)           (None, 26, 26, 160)  179200      activation_146_2[0][0]\n', '2024-03-07T17:29:14.792031 __________________________________________________________________________________________________\n', '2024-03-07T17:29:14.792031 conv2d_152_2 (Conv2D)           (None, 26, 26, 160)  179200      activation_151_2[0][0]\n', '2024-03-07T17:29:14.792031 __________________________________________________________________________________________________\n', '2024-03-07T17:29:14.792031 activation_66 (Activation)      (None, 26, 26, 192)  0           batch_normalization_66[0][0]\n', '2024-03-07T17:29:14.792031 __________________________________________________________________________________________________\n', '2024-03-07T17:29:14.792031 batch_normalization_147_2 (Batc (None, 26, 26, 160)  480         conv2d_147_2[0][0]\n', '2024-03-07T17:29:14.792031 __________________________________________________________________________________________________\n', '2024-03-07T17:29:14.792031 batch_normalization_152_2 (Batc (None, 26, 26, 160)  480         conv2d_152_2[0][0]\n', '2024-03-07T17:29:14.792031 __________________________________________________________________________________________________\n', '2024-03-07T17:29:14.792031 conv2d_62 (Conv2D)              (None, 26, 26, 192)  147456      mixed6[0][0]\n', '2024-03-07T17:29:14.792031 __________________________________________________________________________________________________\n', '2024-03-07T17:29:14.792031 conv2d_67 (Conv2D)              (None, 26, 26, 192)  258048      activation_66[0][0]\n', '2024-03-07T17:29:14.792031 __________________________________________________________________________________________________\n', '2024-03-07T17:29:14.792031 activation_147_2 (Activation)   (None, 26, 26, 160)  0           batch_normalization_147_2[0][0]\n', '2024-03-07T17:29:14.792031 __________________________________________________________________________________________________\n', '2024-03-07T17:29:14.792031 activation_152_2 (Activation)   (None, 26, 26, 160)  0           batch_normalization_152_2[0][0]\n', '2024-03-07T17:29:14.792031 __________________________________________________________________________________________________\n', '2024-03-07T17:29:14.792031 average_pooling2d_15_2 (Average (None, 26, 26, 768)  0           mixed5_2[0][0]\n', '2024-03-07T17:29:14.792031 __________________________________________________________________________________________________\n', '2024-03-07T17:29:14.792031 batch_normalization_62 (BatchNo (None, 26, 26, 192)  576         conv2d_62[0][0]\n', '2024-03-07T17:29:14.792031 __________________________________________________________________________________________________\n', '2024-03-07T17:29:14.792031 batch_normalization_67 (BatchNo (None, 26, 26, 192)  576         conv2d_67[0][0]\n', '2024-03-07T17:29:14.792031 __________________________________________________________________________________________________\n', '2024-03-07T17:29:14.792031 conv2d_145_2 (Conv2D)           (None, 26, 26, 192)  147456      mixed5_2[0][0]\n', '2024-03-07T17:29:14.792031 __________________________________________________________________________________________________\n', '2024-03-07T17:29:14.792031 conv2d_148_2 (Conv2D)           (None, 26, 26, 192)  215040      activation_147_2[0][0]\n', '2024-03-07T17:29:14.792031 __________________________________________________________________________________________________\n', '2024-03-07T17:29:14.792031 conv2d_153_2 (Conv2D)           (None, 26, 26, 192)  215040      activation_152_2[0][0]\n', '2024-03-07T17:29:14.792031 __________________________________________________________________________________________________\n', '2024-03-07T17:29:14.792031 conv2d_154_2 (Conv2D)           (None, 26, 26, 192)  147456      average_pooling2d_15_2[0][0]\n', '2024-03-07T17:29:14.792031 __________________________________________________________________________________________________\n', '2024-03-07T17:29:14.792031 activation_62 (Activation)      (None, 26, 26, 192)  0           batch_normalization_62[0][0]\n', '2024-03-07T17:29:14.792031 __________________________________________________________________________________________________\n', '2024-03-07T17:29:14.792031 activation_67 (Activation)      (None, 26, 26, 192)  0           batch_normalization_67[0][0]\n', '2024-03-07T17:29:14.792031 __________________________________________________________________________________________________\n', '2024-03-07T17:29:14.792031 batch_normalization_145_2 (Batc (None, 26, 26, 192)  576         conv2d_145_2[0][0]\n', '2024-03-07T17:29:14.792031 __________________________________________________________________________________________________\n', '2024-03-07T17:29:14.792031 batch_normalization_148_2 (Batc (None, 26, 26, 192)  576         conv2d_148_2[0][0]\n', '2024-03-07T17:29:14.792031 __________________________________________________________________________________________________\n', '2024-03-07T17:29:14.792031 batch_normalization_153_2 (Batc (None, 26, 26, 192)  576         conv2d_153_2[0][0]\n', '2024-03-07T17:29:14.792031 __________________________________________________________________________________________________\n', '2024-03-07T17:29:14.792031 batch_normalization_154_2 (Batc (None, 26, 26, 192)  576         conv2d_154_2[0][0]\n', '2024-03-07T17:29:14.792031 __________________________________________________________________________________________________\n', '2024-03-07T17:29:14.792031 conv2d_63 (Conv2D)              (None, 26, 26, 192)  258048      activation_62[0][0]\n', '2024-03-07T17:29:14.792031 __________________________________________________________________________________________________\n', '2024-03-07T17:29:14.792031 conv2d_68 (Conv2D)              (None, 26, 26, 192)  258048      activation_67[0][0]\n', '2024-03-07T17:29:14.792031 __________________________________________________________________________________________________\n', '2024-03-07T17:29:14.792031 activation_145_2 (Activation)   (None, 26, 26, 192)  0           batch_normalization_145_2[0][0]\n', '2024-03-07T17:29:14.792031 __________________________________________________________________________________________________\n', '2024-03-07T17:29:14.792031 activation_148_2 (Activation)   (None, 26, 26, 192)  0           batch_normalization_148_2[0][0]\n', '2024-03-07T17:29:14.792031 __________________________________________________________________________________________________\n', '2024-03-07T17:29:14.792031 activation_153_2 (Activation)   (None, 26, 26, 192)  0           batch_normalization_153_2[0][0]\n', '2024-03-07T17:29:14.792031 __________________________________________________________________________________________________\n', '2024-03-07T17:29:14.792031 activation_154_2 (Activation)   (None, 26, 26, 192)  0           batch_normalization_154_2[0][0]\n', '2024-03-07T17:29:14.792031 __________________________________________________________________________________________________\n', '2024-03-07T17:29:14.792031 batch_normalization_63 (BatchNo (None, 26, 26, 192)  576         conv2d_63[0][0]\n', '2024-03-07T17:29:14.792031 __________________________________________________________________________________________________\n', '2024-03-07T17:29:14.792031 batch_normalization_68 (BatchNo (None, 26, 26, 192)  576         conv2d_68[0][0]\n', '2024-03-07T17:29:14.792031 __________________________________________________________________________________________________\n', '2024-03-07T17:29:14.792031 mixed6_2 (Concatenate)          (None, 26, 26, 768)  0           activation_145_2[0][0]\n', '2024-03-07T17:29:14.792031                                                                  activation_148_2[0][0]\n', '2024-03-07T17:29:14.792031                                                                  activation_153_2[0][0]\n', '2024-03-07T17:29:14.792031                                                                  activation_154_2[0][0]\n', '2024-03-07T17:29:14.792031 __________________________________________________________________________________________________\n', '2024-03-07T17:29:14.792031 activation_63 (Activation)      (None, 26, 26, 192)  0           batch_normalization_63[0][0]\n', '2024-03-07T17:29:14.792031 __________________________________________________________________________________________________\n', '2024-03-07T17:29:14.792031 activation_68 (Activation)      (None, 26, 26, 192)  0           batch_normalization_68[0][0]\n', '2024-03-07T17:29:14.792031 __________________________________________________________________________________________________\n', '2024-03-07T17:29:14.792031 average_pooling2d_7 (AveragePoo (None, 26, 26, 768)  0           mixed6[0][0]\n', '2024-03-07T17:29:14.792031 __________________________________________________________________________________________________\n', '2024-03-07T17:29:14.792031 conv2d_159_2 (Conv2D)           (None, 26, 26, 192)  147456      mixed6_2[0][0]\n', '2024-03-07T17:29:14.792031 __________________________________________________________________________________________________\n', '2024-03-07T17:29:14.792031 conv2d_61 (Conv2D)              (None, 26, 26, 192)  147456      mixed6[0][0]\n', '2024-03-07T17:29:14.792031 __________________________________________________________________________________________________\n', '2024-03-07T17:29:14.792031 conv2d_64 (Conv2D)              (None, 26, 26, 192)  258048      activation_63[0][0]\n', '2024-03-07T17:29:14.792031 __________________________________________________________________________________________________\n', '2024-03-07T17:29:14.792031 conv2d_69 (Conv2D)              (None, 26, 26, 192)  258048      activation_68[0][0]\n', '2024-03-07T17:29:14.792031 __________________________________________________________________________________________________\n', '2024-03-07T17:29:14.792031 conv2d_70 (Conv2D)              (None, 26, 26, 192)  147456      average_pooling2d_7[0][0]\n', '2024-03-07T17:29:14.792031 __________________________________________________________________________________________________\n', '2024-03-07T17:29:14.792031 batch_normalization_159_2 (Batc (None, 26, 26, 192)  576         conv2d_159_2[0][0]\n', '2024-03-07T17:29:14.792031 __________________________________________________________________________________________________\n', '2024-03-07T17:29:14.792031 batch_normalization_61 (BatchNo (None, 26, 26, 192)  576         conv2d_61[0][0]\n', '2024-03-07T17:29:14.792031 __________________________________________________________________________________________________\n', '2024-03-07T17:29:14.792031 batch_normalization_64 (BatchNo (None, 26, 26, 192)  576         conv2d_64[0][0]\n', '2024-03-07T17:29:14.792031 __________________________________________________________________________________________________\n', '2024-03-07T17:29:14.792031 batch_normalization_69 (BatchNo (None, 26, 26, 192)  576         conv2d_69[0][0]\n', '2024-03-07T17:29:14.792031 __________________________________________________________________________________________________\n', '2024-03-07T17:29:14.792031 batch_normalization_70 (BatchNo (None, 26, 26, 192)  576         conv2d_70[0][0]\n', '2024-03-07T17:29:14.792031 __________________________________________________________________________________________________\n', '2024-03-07T17:29:14.792031 activation_159_2 (Activation)   (None, 26, 26, 192)  0           batch_normalization_159_2[0][0]\n', '2024-03-07T17:29:14.792031 __________________________________________________________________________________________________\n', '2024-03-07T17:29:14.792031 activation_61 (Activation)      (None, 26, 26, 192)  0           batch_normalization_61[0][0]\n', '2024-03-07T17:29:14.792031 __________________________________________________________________________________________________\n', '2024-03-07T17:29:14.792031 activation_64 (Activation)      (None, 26, 26, 192)  0           batch_normalization_64[0][0]\n', '2024-03-07T17:29:14.792031 __________________________________________________________________________________________________\n', '2024-03-07T17:29:14.792031 activation_69 (Activation)      (None, 26, 26, 192)  0           batch_normalization_69[0][0]\n', '2024-03-07T17:29:14.792031 __________________________________________________________________________________________________\n', '2024-03-07T17:29:14.792031 activation_70 (Activation)      (None, 26, 26, 192)  0           batch_normalization_70[0][0]\n', '2024-03-07T17:29:14.792031 __________________________________________________________________________________________________\n', '2024-03-07T17:29:14.792031 conv2d_160_2 (Conv2D)           (None, 26, 26, 192)  258048      activation_159_2[0][0]\n', '2024-03-07T17:29:14.792031 __________________________________________________________________________________________________\n', '2024-03-07T17:29:14.792031 mixed7 (Concatenate)            (None, 26, 26, 768)  0           activation_61[0][0]\n', '2024-03-07T17:29:14.792031                                                                  activation_64[0][0]\n', '2024-03-07T17:29:14.792031                                                                  activation_69[0][0]\n', '2024-03-07T17:29:14.792031                                                                  activation_70[0][0]\n', '2024-03-07T17:29:14.792031 __________________________________________________________________________________________________\n', '2024-03-07T17:29:14.792031 batch_normalization_160_2 (Batc (None, 26, 26, 192)  576         conv2d_160_2[0][0]\n', '2024-03-07T17:29:14.792031 __________________________________________________________________________________________________\n', '2024-03-07T17:29:14.792031 conv2d_73 (Conv2D)              (None, 26, 26, 192)  147456      mixed7[0][0]\n', '2024-03-07T17:29:14.792031 __________________________________________________________________________________________________\n', '2024-03-07T17:29:14.792031 activation_160_2 (Activation)   (None, 26, 26, 192)  0           batch_normalization_160_2[0][0]\n', '2024-03-07T17:29:14.792031 __________________________________________________________________________________________________\n', '2024-03-07T17:29:14.792031 batch_normalization_73 (BatchNo (None, 26, 26, 192)  576         conv2d_73[0][0]\n', '2024-03-07T17:29:14.792031 __________________________________________________________________________________________________\n', '2024-03-07T17:29:14.792031 conv2d_156_2 (Conv2D)           (None, 26, 26, 192)  147456      mixed6_2[0][0]\n', '2024-03-07T17:29:14.792031 __________________________________________________________________________________________________\n', '2024-03-07T17:29:14.792031 conv2d_161_2 (Conv2D)           (None, 26, 26, 192)  258048      activation_160_2[0][0]\n', '2024-03-07T17:29:14.792031 __________________________________________________________________________________________________\n', '2024-03-07T17:29:14.792031 activation_73 (Activation)      (None, 26, 26, 192)  0           batch_normalization_73[0][0]\n', '2024-03-07T17:29:14.792031 __________________________________________________________________________________________________\n', '2024-03-07T17:29:14.792031 batch_normalization_156_2 (Batc (None, 26, 26, 192)  576         conv2d_156_2[0][0]\n', '2024-03-07T17:29:14.792031 __________________________________________________________________________________________________\n', '2024-03-07T17:29:14.792031 batch_normalization_161_2 (Batc (None, 26, 26, 192)  576         conv2d_161_2[0][0]\n', '2024-03-07T17:29:14.792031 __________________________________________________________________________________________________\n', '2024-03-07T17:29:14.792031 conv2d_74 (Conv2D)              (None, 26, 26, 192)  258048      activation_73[0][0]\n', '2024-03-07T17:29:14.792031 __________________________________________________________________________________________________\n', '2024-03-07T17:29:14.792031 activation_156_2 (Activation)   (None, 26, 26, 192)  0           batch_normalization_156_2[0][0]\n', '2024-03-07T17:29:14.792031 __________________________________________________________________________________________________\n', '2024-03-07T17:29:14.792031 activation_161_2 (Activation)   (None, 26, 26, 192)  0           batch_normalization_161_2[0][0]\n', '2024-03-07T17:29:14.792031 __________________________________________________________________________________________________\n', '2024-03-07T17:29:14.792031 batch_normalization_74 (BatchNo (None, 26, 26, 192)  576         conv2d_74[0][0]\n', '2024-03-07T17:29:14.792031 __________________________________________________________________________________________________\n', '2024-03-07T17:29:14.792031 conv2d_157_2 (Conv2D)           (None, 26, 26, 192)  258048      activation_156_2[0][0]\n', '2024-03-07T17:29:14.792031 __________________________________________________________________________________________________\n', '2024-03-07T17:29:14.792031 conv2d_162_2 (Conv2D)           (None, 26, 26, 192)  258048      activation_161_2[0][0]\n', '2024-03-07T17:29:14.792031 __________________________________________________________________________________________________\n', '2024-03-07T17:29:14.792031 activation_74 (Activation)      (None, 26, 26, 192)  0           batch_normalization_74[0][0]\n', '2024-03-07T17:29:14.792031 __________________________________________________________________________________________________\n', '2024-03-07T17:29:14.792031 batch_normalization_157_2 (Batc (None, 26, 26, 192)  576         conv2d_157_2[0][0]\n', '2024-03-07T17:29:14.792031 __________________________________________________________________________________________________\n', '2024-03-07T17:29:14.792031 batch_normalization_162_2 (Batc (None, 26, 26, 192)  576         conv2d_162_2[0][0]\n', '2024-03-07T17:29:14.792031 __________________________________________________________________________________________________\n', '2024-03-07T17:29:14.792031 conv2d_71 (Conv2D)              (None, 26, 26, 192)  147456      mixed7[0][0]\n', '2024-03-07T17:29:14.792031 __________________________________________________________________________________________________\n', '2024-03-07T17:29:14.792031 conv2d_75 (Conv2D)              (None, 26, 26, 192)  258048      activation_74[0][0]\n', '2024-03-07T17:29:14.792031 __________________________________________________________________________________________________\n', '2024-03-07T17:29:14.792031 activation_157_2 (Activation)   (None, 26, 26, 192)  0           batch_normalization_157_2[0][0]\n', '2024-03-07T17:29:14.792031 __________________________________________________________________________________________________\n', '2024-03-07T17:29:14.792031 activation_162_2 (Activation)   (None, 26, 26, 192)  0           batch_normalization_162_2[0][0]\n', '2024-03-07T17:29:14.792031 __________________________________________________________________________________________________\n', '2024-03-07T17:29:14.792031 average_pooling2d_16_2 (Average (None, 26, 26, 768)  0           mixed6_2[0][0]\n', '2024-03-07T17:29:14.792031 __________________________________________________________________________________________________\n', '2024-03-07T17:29:14.792031 batch_normalization_71 (BatchNo (None, 26, 26, 192)  576         conv2d_71[0][0]\n', '2024-03-07T17:29:14.792031 __________________________________________________________________________________________________\n', '2024-03-07T17:29:14.792031 batch_normalization_75 (BatchNo (None, 26, 26, 192)  576         conv2d_75[0][0]\n', '2024-03-07T17:29:14.792031 __________________________________________________________________________________________________\n', '2024-03-07T17:29:14.792031 conv2d_155_2 (Conv2D)           (None, 26, 26, 192)  147456      mixed6_2[0][0]\n', '2024-03-07T17:29:14.792031 __________________________________________________________________________________________________\n', '2024-03-07T17:29:14.792031 conv2d_158_2 (Conv2D)           (None, 26, 26, 192)  258048      activation_157_2[0][0]\n', '2024-03-07T17:29:14.792031 __________________________________________________________________________________________________\n', '2024-03-07T17:29:14.792031 conv2d_163_2 (Conv2D)           (None, 26, 26, 192)  258048      activation_162_2[0][0]\n', '2024-03-07T17:29:14.792031 __________________________________________________________________________________________________\n', '2024-03-07T17:29:14.792031 conv2d_164_2 (Conv2D)           (None, 26, 26, 192)  147456      average_pooling2d_16_2[0][0]\n', '2024-03-07T17:29:14.792031 __________________________________________________________________________________________________\n', '2024-03-07T17:29:14.792031 activation_71 (Activation)      (None, 26, 26, 192)  0           batch_normalization_71[0][0]\n', '2024-03-07T17:29:14.792031 __________________________________________________________________________________________________\n', '2024-03-07T17:29:14.792031 activation_75 (Activation)      (None, 26, 26, 192)  0           batch_normalization_75[0][0]\n', '2024-03-07T17:29:14.792031 __________________________________________________________________________________________________\n', '2024-03-07T17:29:14.792031 batch_normalization_155_2 (Batc (None, 26, 26, 192)  576         conv2d_155_2[0][0]\n', '2024-03-07T17:29:14.792031 __________________________________________________________________________________________________\n', '2024-03-07T17:29:14.792031 batch_normalization_158_2 (Batc (None, 26, 26, 192)  576         conv2d_158_2[0][0]\n', '2024-03-07T17:29:14.792031 __________________________________________________________________________________________________\n', '2024-03-07T17:29:14.792031 batch_normalization_163_2 (Batc (None, 26, 26, 192)  576         conv2d_163_2[0][0]\n', '2024-03-07T17:29:14.792031 __________________________________________________________________________________________________\n', '2024-03-07T17:29:14.792031 batch_normalization_164_2 (Batc (None, 26, 26, 192)  576         conv2d_164_2[0][0]\n', '2024-03-07T17:29:14.792031 __________________________________________________________________________________________________\n', '2024-03-07T17:29:14.792031 conv2d_72 (Conv2D)              (None, 12, 12, 320)  552960      activation_71[0][0]\n', '2024-03-07T17:29:14.792031 __________________________________________________________________________________________________\n', '2024-03-07T17:29:14.792031 conv2d_76 (Conv2D)              (None, 12, 12, 192)  331776      activation_75[0][0]\n', '2024-03-07T17:29:14.792031 __________________________________________________________________________________________________\n', '2024-03-07T17:29:14.792031 activation_155_2 (Activation)   (None, 26, 26, 192)  0           batch_normalization_155_2[0][0]\n', '2024-03-07T17:29:14.792031 __________________________________________________________________________________________________\n', '2024-03-07T17:29:14.792031 activation_158_2 (Activation)   (None, 26, 26, 192)  0           batch_normalization_158_2[0][0]\n', '2024-03-07T17:29:14.792031 __________________________________________________________________________________________________\n', '2024-03-07T17:29:14.792031 activation_163_2 (Activation)   (None, 26, 26, 192)  0           batch_normalization_163_2[0][0]\n', '2024-03-07T17:29:14.792031 __________________________________________________________________________________________________\n', '2024-03-07T17:29:14.792031 activation_164_2 (Activation)   (None, 26, 26, 192)  0           batch_normalization_164_2[0][0]\n', '2024-03-07T17:29:14.792031 __________________________________________________________________________________________________\n', '2024-03-07T17:29:14.792031 batch_normalization_72 (BatchNo (None, 12, 12, 320)  960         conv2d_72[0][0]\n', '2024-03-07T17:29:14.792031 __________________________________________________________________________________________________\n', '2024-03-07T17:29:14.792031 batch_normalization_76 (BatchNo (None, 12, 12, 192)  576         conv2d_76[0][0]\n', '2024-03-07T17:29:14.792031 __________________________________________________________________________________________________\n', '2024-03-07T17:29:14.792031 mixed7_2 (Concatenate)          (None, 26, 26, 768)  0           activation_155_2[0][0]\n', '2024-03-07T17:29:14.792031                                                                  activation_158_2[0][0]\n', '2024-03-07T17:29:14.792031                                                                  activation_163_2[0][0]\n', '2024-03-07T17:29:14.792031                                                                  activation_164_2[0][0]\n', '2024-03-07T17:29:14.792031 __________________________________________________________________________________________________\n', '2024-03-07T17:29:14.792031 activation_72 (Activation)      (None, 12, 12, 320)  0           batch_normalization_72[0][0]\n', '2024-03-07T17:29:14.792031 __________________________________________________________________________________________________\n', '2024-03-07T17:29:14.792031 activation_76 (Activation)      (None, 12, 12, 192)  0           batch_normalization_76[0][0]\n', '2024-03-07T17:29:14.792031 __________________________________________________________________________________________________\n', '2024-03-07T17:29:14.792031 max_pooling2d_4 (MaxPooling2D)  (None, 12, 12, 768)  0           mixed7[0][0]\n', '2024-03-07T17:29:14.792031 __________________________________________________________________________________________________\n', '2024-03-07T17:29:14.792031 conv2d_167_2 (Conv2D)           (None, 26, 26, 192)  147456      mixed7_2[0][0]\n', '2024-03-07T17:29:14.792031 __________________________________________________________________________________________________\n', '2024-03-07T17:29:14.792031 mixed8 (Concatenate)            (None, 12, 12, 1280) 0           activation_72[0][0]\n', '2024-03-07T17:29:14.792031                                                                  activation_76[0][0]\n', '2024-03-07T17:29:14.792031                                                                  max_pooling2d_4[0][0]\n', '2024-03-07T17:29:14.792031 __________________________________________________________________________________________________\n', '2024-03-07T17:29:14.792031 batch_normalization_167_2 (Batc (None, 26, 26, 192)  576         conv2d_167_2[0][0]\n', '2024-03-07T17:29:14.792031 __________________________________________________________________________________________________\n', '2024-03-07T17:29:14.792031 conv2d_81 (Conv2D)              (None, 12, 12, 448)  573440      mixed8[0][0]\n', '2024-03-07T17:29:14.792031 __________________________________________________________________________________________________\n', '2024-03-07T17:29:14.792031 activation_167_2 (Activation)   (None, 26, 26, 192)  0           batch_normalization_167_2[0][0]\n', '2024-03-07T17:29:14.792031 __________________________________________________________________________________________________\n', '2024-03-07T17:29:14.792031 batch_normalization_81 (BatchNo (None, 12, 12, 448)  1344        conv2d_81[0][0]\n', '2024-03-07T17:29:14.792031 __________________________________________________________________________________________________\n', '2024-03-07T17:29:14.792031 conv2d_168_2 (Conv2D)           (None, 26, 26, 192)  258048      activation_167_2[0][0]\n', '2024-03-07T17:29:14.792031 __________________________________________________________________________________________________\n', '2024-03-07T17:29:14.792031 activation_81 (Activation)      (None, 12, 12, 448)  0           batch_normalization_81[0][0]\n', '2024-03-07T17:29:14.792031 __________________________________________________________________________________________________\n', '2024-03-07T17:29:14.792031 batch_normalization_168_2 (Batc (None, 26, 26, 192)  576         conv2d_168_2[0][0]\n', '2024-03-07T17:29:14.792031 __________________________________________________________________________________________________\n', '2024-03-07T17:29:14.792031 conv2d_78 (Conv2D)              (None, 12, 12, 384)  491520      mixed8[0][0]\n', '2024-03-07T17:29:14.792031 __________________________________________________________________________________________________\n', '2024-03-07T17:29:14.792031 conv2d_82 (Conv2D)              (None, 12, 12, 384)  1548288     activation_81[0][0]\n', '2024-03-07T17:29:14.792031 __________________________________________________________________________________________________\n', '2024-03-07T17:29:14.792031 activation_168_2 (Activation)   (None, 26, 26, 192)  0           batch_normalization_168_2[0][0]\n', '2024-03-07T17:29:14.792031 __________________________________________________________________________________________________\n', '2024-03-07T17:29:14.792031 batch_normalization_78 (BatchNo (None, 12, 12, 384)  1152        conv2d_78[0][0]\n', '2024-03-07T17:29:14.792031 __________________________________________________________________________________________________\n', '2024-03-07T17:29:14.792031 batch_normalization_82 (BatchNo (None, 12, 12, 384)  1152        conv2d_82[0][0]\n', '2024-03-07T17:29:14.792031 __________________________________________________________________________________________________\n', '2024-03-07T17:29:14.792031 conv2d_165_2 (Conv2D)           (None, 26, 26, 192)  147456      mixed7_2[0][0]\n', '2024-03-07T17:29:14.792031 __________________________________________________________________________________________________\n', '2024-03-07T17:29:14.792031 conv2d_169_2 (Conv2D)           (None, 26, 26, 192)  258048      activation_168_2[0][0]\n', '2024-03-07T17:29:14.792031 __________________________________________________________________________________________________\n', '2024-03-07T17:29:14.792031 activation_78 (Activation)      (None, 12, 12, 384)  0           batch_normalization_78[0][0]\n', '2024-03-07T17:29:14.792031 __________________________________________________________________________________________________\n', '2024-03-07T17:29:14.792031 activation_82 (Activation)      (None, 12, 12, 384)  0           batch_normalization_82[0][0]\n', '2024-03-07T17:29:14.792031 __________________________________________________________________________________________________\n', '2024-03-07T17:29:14.792031 batch_normalization_165_2 (Batc (None, 26, 26, 192)  576         conv2d_165_2[0][0]\n', '2024-03-07T17:29:14.792031 __________________________________________________________________________________________________\n', '2024-03-07T17:29:14.792031 batch_normalization_169_2 (Batc (None, 26, 26, 192)  576         conv2d_169_2[0][0]\n', '2024-03-07T17:29:14.792031 __________________________________________________________________________________________________\n', '2024-03-07T17:29:14.792031 conv2d_79 (Conv2D)              (None, 12, 12, 384)  442368      activation_78[0][0]\n', '2024-03-07T17:29:14.792031 __________________________________________________________________________________________________\n', '2024-03-07T17:29:14.792031 conv2d_80 (Conv2D)              (None, 12, 12, 384)  442368      activation_78[0][0]\n', '2024-03-07T17:29:14.792031 __________________________________________________________________________________________________\n', '2024-03-07T17:29:14.792031 conv2d_83 (Conv2D)              (None, 12, 12, 384)  442368      activation_82[0][0]\n', '2024-03-07T17:29:14.792031 __________________________________________________________________________________________________\n', '2024-03-07T17:29:14.792031 conv2d_84 (Conv2D)              (None, 12, 12, 384)  442368      activation_82[0][0]\n', '2024-03-07T17:29:14.792031 __________________________________________________________________________________________________\n', '2024-03-07T17:29:14.792031 average_pooling2d_8 (AveragePoo (None, 12, 12, 1280) 0           mixed8[0][0]\n', '2024-03-07T17:29:14.792031 __________________________________________________________________________________________________\n', '2024-03-07T17:29:14.792031 activation_165_2 (Activation)   (None, 26, 26, 192)  0           batch_normalization_165_2[0][0]\n', '2024-03-07T17:29:14.792031 __________________________________________________________________________________________________\n', '2024-03-07T17:29:14.792031 activation_169_2 (Activation)   (None, 26, 26, 192)  0           batch_normalization_169_2[0][0]\n', '2024-03-07T17:29:14.792031 __________________________________________________________________________________________________\n', '2024-03-07T17:29:14.792031 conv2d_77 (Conv2D)              (None, 12, 12, 320)  409600      mixed8[0][0]\n', '2024-03-07T17:29:14.792031 __________________________________________________________________________________________________\n', '2024-03-07T17:29:14.792031 batch_normalization_79 (BatchNo (None, 12, 12, 384)  1152        conv2d_79[0][0]\n', '2024-03-07T17:29:14.792031 __________________________________________________________________________________________________\n', '2024-03-07T17:29:14.792031 batch_normalization_80 (BatchNo (None, 12, 12, 384)  1152        conv2d_80[0][0]\n', '2024-03-07T17:29:14.792031 __________________________________________________________________________________________________\n', '2024-03-07T17:29:14.792031 batch_normalization_83 (BatchNo (None, 12, 12, 384)  1152        conv2d_83[0][0]\n', '2024-03-07T17:29:14.792031 __________________________________________________________________________________________________\n', '2024-03-07T17:29:14.792031 batch_normalization_84 (BatchNo (None, 12, 12, 384)  1152        conv2d_84[0][0]\n', '2024-03-07T17:29:14.792031 __________________________________________________________________________________________________\n', '2024-03-07T17:29:14.792031 conv2d_85 (Conv2D)              (None, 12, 12, 192)  245760      average_pooling2d_8[0][0]\n', '2024-03-07T17:29:14.792031 __________________________________________________________________________________________________\n', '2024-03-07T17:29:14.792031 conv2d_166_2 (Conv2D)           (None, 12, 12, 320)  552960      activation_165_2[0][0]\n', '2024-03-07T17:29:14.792031 __________________________________________________________________________________________________\n', '2024-03-07T17:29:14.792031 conv2d_170_2 (Conv2D)           (None, 12, 12, 192)  331776      activation_169_2[0][0]\n', '2024-03-07T17:29:14.792031 __________________________________________________________________________________________________\n', '2024-03-07T17:29:14.792031 batch_normalization_77 (BatchNo (None, 12, 12, 320)  960         conv2d_77[0][0]\n', '2024-03-07T17:29:14.792031 __________________________________________________________________________________________________\n', '2024-03-07T17:29:14.792031 activation_79 (Activation)      (None, 12, 12, 384)  0           batch_normalization_79[0][0]\n', '2024-03-07T17:29:14.792031 __________________________________________________________________________________________________\n', '2024-03-07T17:29:14.792031 activation_80 (Activation)      (None, 12, 12, 384)  0           batch_normalization_80[0][0]\n', '2024-03-07T17:29:14.792031 __________________________________________________________________________________________________\n', '2024-03-07T17:29:14.792031 activation_83 (Activation)      (None, 12, 12, 384)  0           batch_normalization_83[0][0]\n', '2024-03-07T17:29:14.792031 __________________________________________________________________________________________________\n', '2024-03-07T17:29:14.792031 activation_84 (Activation)      (None, 12, 12, 384)  0           batch_normalization_84[0][0]\n', '2024-03-07T17:29:14.792031 __________________________________________________________________________________________________\n', '2024-03-07T17:29:14.792031 batch_normalization_85 (BatchNo (None, 12, 12, 192)  576         conv2d_85[0][0]\n', '2024-03-07T17:29:14.792031 __________________________________________________________________________________________________\n', '2024-03-07T17:29:14.792031 batch_normalization_166_2 (Batc (None, 12, 12, 320)  960         conv2d_166_2[0][0]\n', '2024-03-07T17:29:14.792031 __________________________________________________________________________________________________\n', '2024-03-07T17:29:14.792031 batch_normalization_170_2 (Batc (None, 12, 12, 192)  576         conv2d_170_2[0][0]\n', '2024-03-07T17:29:14.792031 __________________________________________________________________________________________________\n', '2024-03-07T17:29:14.792031 activation_77 (Activation)      (None, 12, 12, 320)  0           batch_normalization_77[0][0]\n', '2024-03-07T17:29:14.792031 __________________________________________________________________________________________________\n', '2024-03-07T17:29:14.792031 mixed9_0 (Concatenate)          (None, 12, 12, 768)  0           activation_79[0][0]\n', '2024-03-07T17:29:14.792031                                                                  activation_80[0][0]\n', '2024-03-07T17:29:14.792031 __________________________________________________________________________________________________\n', '2024-03-07T17:29:14.792031 concatenate_1 (Concatenate)     (None, 12, 12, 768)  0           activation_83[0][0]\n', '2024-03-07T17:29:14.792031                                                                  activation_84[0][0]\n', '2024-03-07T17:29:14.792031 __________________________________________________________________________________________________\n', '2024-03-07T17:29:14.792031 activation_85 (Activation)      (None, 12, 12, 192)  0           batch_normalization_85[0][0]\n', '2024-03-07T17:29:14.792031 __________________________________________________________________________________________________\n', '2024-03-07T17:29:14.792031 activation_166_2 (Activation)   (None, 12, 12, 320)  0           batch_normalization_166_2[0][0]\n', '2024-03-07T17:29:14.792031 __________________________________________________________________________________________________\n', '2024-03-07T17:29:14.792031 activation_170_2 (Activation)   (None, 12, 12, 192)  0           batch_normalization_170_2[0][0]\n', '2024-03-07T17:29:14.792031 __________________________________________________________________________________________________\n', '2024-03-07T17:29:14.792031 max_pooling2d_8_2 (MaxPooling2D (None, 12, 12, 768)  0           mixed7_2[0][0]\n', '2024-03-07T17:29:14.792031 __________________________________________________________________________________________________\n', '2024-03-07T17:29:14.792031 mixed9 (Concatenate)            (None, 12, 12, 2048) 0           activation_77[0][0]\n', '2024-03-07T17:29:14.792031                                                                  mixed9_0[0][0]\n', '2024-03-07T17:29:14.792031                                                                  concatenate_1[0][0]\n', '2024-03-07T17:29:14.792031                                                                  activation_85[0][0]\n', '2024-03-07T17:29:14.792031 __________________________________________________________________________________________________\n', '2024-03-07T17:29:14.792031 mixed8_2 (Concatenate)          (None, 12, 12, 1280) 0           activation_166_2[0][0]\n', '2024-03-07T17:29:14.792031                                                                  activation_170_2[0][0]\n', '2024-03-07T17:29:14.792031                                                                  max_pooling2d_8_2[0][0]\n', '2024-03-07T17:29:14.792031 __________________________________________________________________________________________________\n', '2024-03-07T17:29:14.792031 conv2d_90 (Conv2D)              (None, 12, 12, 448)  917504      mixed9[0][0]\n', '2024-03-07T17:29:14.792031 __________________________________________________________________________________________________\n', '2024-03-07T17:29:14.792031 conv2d_175_2 (Conv2D)           (None, 12, 12, 448)  573440      mixed8_2[0][0]\n', '2024-03-07T17:29:14.792031 __________________________________________________________________________________________________\n', '2024-03-07T17:29:14.792031 batch_normalization_90 (BatchNo (None, 12, 12, 448)  1344        conv2d_90[0][0]\n', '2024-03-07T17:29:14.792031 __________________________________________________________________________________________________\n', '2024-03-07T17:29:14.792031 batch_normalization_175_2 (Batc (None, 12, 12, 448)  1344        conv2d_175_2[0][0]\n', '2024-03-07T17:29:14.792031 __________________________________________________________________________________________________\n', '2024-03-07T17:29:14.792031 activation_90 (Activation)      (None, 12, 12, 448)  0           batch_normalization_90[0][0]\n', '2024-03-07T17:29:14.792031 __________________________________________________________________________________________________\n', '2024-03-07T17:29:14.792031 activation_175_2 (Activation)   (None, 12, 12, 448)  0           batch_normalization_175_2[0][0]\n', '2024-03-07T17:29:14.792031 __________________________________________________________________________________________________\n', '2024-03-07T17:29:14.792031 conv2d_87 (Conv2D)              (None, 12, 12, 384)  786432      mixed9[0][0]\n', '2024-03-07T17:29:14.792031 __________________________________________________________________________________________________\n', '2024-03-07T17:29:14.792031 conv2d_91 (Conv2D)              (None, 12, 12, 384)  1548288     activation_90[0][0]\n', '2024-03-07T17:29:14.792031 __________________________________________________________________________________________________\n', '2024-03-07T17:29:14.792031 conv2d_172_2 (Conv2D)           (None, 12, 12, 384)  491520      mixed8_2[0][0]\n', '2024-03-07T17:29:14.792031 __________________________________________________________________________________________________\n', '2024-03-07T17:29:14.792031 conv2d_176_2 (Conv2D)           (None, 12, 12, 384)  1548288     activation_175_2[0][0]\n', '2024-03-07T17:29:14.792031 __________________________________________________________________________________________________\n', '2024-03-07T17:29:14.792031 batch_normalization_87 (BatchNo (None, 12, 12, 384)  1152        conv2d_87[0][0]\n', '2024-03-07T17:29:14.792031 __________________________________________________________________________________________________\n', '2024-03-07T17:29:14.792031 batch_normalization_91 (BatchNo (None, 12, 12, 384)  1152        conv2d_91[0][0]\n', '2024-03-07T17:29:14.792031 __________________________________________________________________________________________________\n', '2024-03-07T17:29:14.792031 batch_normalization_172_2 (Batc (None, 12, 12, 384)  1152        conv2d_172_2[0][0]\n', '2024-03-07T17:29:14.792031 __________________________________________________________________________________________________\n', '2024-03-07T17:29:14.792031 batch_normalization_176_2 (Batc (None, 12, 12, 384)  1152        conv2d_176_2[0][0]\n', '2024-03-07T17:29:14.792031 __________________________________________________________________________________________________\n', '2024-03-07T17:29:14.792031 activation_87 (Activation)      (None, 12, 12, 384)  0           batch_normalization_87[0][0]\n', '2024-03-07T17:29:14.792031 __________________________________________________________________________________________________\n', '2024-03-07T17:29:14.792031 activation_91 (Activation)      (None, 12, 12, 384)  0           batch_normalization_91[0][0]\n', '2024-03-07T17:29:14.792031 __________________________________________________________________________________________________\n', '2024-03-07T17:29:14.792031 activation_172_2 (Activation)   (None, 12, 12, 384)  0           batch_normalization_172_2[0][0]\n', '2024-03-07T17:29:14.792031 __________________________________________________________________________________________________\n', '2024-03-07T17:29:14.792031 activation_176_2 (Activation)   (None, 12, 12, 384)  0           batch_normalization_176_2[0][0]\n', '2024-03-07T17:29:14.792031 __________________________________________________________________________________________________\n', '2024-03-07T17:29:14.792031 conv2d_88 (Conv2D)              (None, 12, 12, 384)  442368      activation_87[0][0]\n', '2024-03-07T17:29:14.792031 __________________________________________________________________________________________________\n', '2024-03-07T17:29:14.792031 conv2d_89 (Conv2D)              (None, 12, 12, 384)  442368      activation_87[0][0]\n', '2024-03-07T17:29:14.792031 __________________________________________________________________________________________________\n', '2024-03-07T17:29:14.792031 conv2d_92 (Conv2D)              (None, 12, 12, 384)  442368      activation_91[0][0]\n', '2024-03-07T17:29:14.792031 __________________________________________________________________________________________________\n', '2024-03-07T17:29:14.792031 conv2d_93 (Conv2D)              (None, 12, 12, 384)  442368      activation_91[0][0]\n', '2024-03-07T17:29:14.792031 __________________________________________________________________________________________________\n', '2024-03-07T17:29:14.792031 average_pooling2d_9 (AveragePoo (None, 12, 12, 2048) 0           mixed9[0][0]\n', '2024-03-07T17:29:14.792031 __________________________________________________________________________________________________\n', '2024-03-07T17:29:14.792031 conv2d_173_2 (Conv2D)           (None, 12, 12, 384)  442368      activation_172_2[0][0]\n', '2024-03-07T17:29:14.792031 __________________________________________________________________________________________________\n', '2024-03-07T17:29:14.792031 conv2d_174_2 (Conv2D)           (None, 12, 12, 384)  442368      activation_172_2[0][0]\n', '2024-03-07T17:29:14.792031 __________________________________________________________________________________________________\n', '2024-03-07T17:29:14.792031 conv2d_177_2 (Conv2D)           (None, 12, 12, 384)  442368      activation_176_2[0][0]\n', '2024-03-07T17:29:14.792031 __________________________________________________________________________________________________\n', '2024-03-07T17:29:14.792031 conv2d_178_2 (Conv2D)           (None, 12, 12, 384)  442368      activation_176_2[0][0]\n', '2024-03-07T17:29:14.792031 __________________________________________________________________________________________________\n', '2024-03-07T17:29:14.792031 average_pooling2d_17_2 (Average (None, 12, 12, 1280) 0           mixed8_2[0][0]\n', '2024-03-07T17:29:14.792031 __________________________________________________________________________________________________\n', '2024-03-07T17:29:14.792031 conv2d_86 (Conv2D)              (None, 12, 12, 320)  655360      mixed9[0][0]\n', '2024-03-07T17:29:14.792031 __________________________________________________________________________________________________\n', '2024-03-07T17:29:14.792031 batch_normalization_88 (BatchNo (None, 12, 12, 384)  1152        conv2d_88[0][0]\n', '2024-03-07T17:29:14.792031 __________________________________________________________________________________________________\n', '2024-03-07T17:29:14.792031 batch_normalization_89 (BatchNo (None, 12, 12, 384)  1152        conv2d_89[0][0]\n', '2024-03-07T17:29:14.792031 __________________________________________________________________________________________________\n', '2024-03-07T17:29:14.792031 batch_normalization_92 (BatchNo (None, 12, 12, 384)  1152        conv2d_92[0][0]\n', '2024-03-07T17:29:14.792031 __________________________________________________________________________________________________\n', '2024-03-07T17:29:14.792031 batch_normalization_93 (BatchNo (None, 12, 12, 384)  1152        conv2d_93[0][0]\n', '2024-03-07T17:29:14.792031 __________________________________________________________________________________________________\n', '2024-03-07T17:29:14.792031 conv2d_94 (Conv2D)              (None, 12, 12, 192)  393216      average_pooling2d_9[0][0]\n', '2024-03-07T17:29:14.792031 __________________________________________________________________________________________________\n', '2024-03-07T17:29:14.792031 conv2d_171_2 (Conv2D)           (None, 12, 12, 320)  409600      mixed8_2[0][0]\n', '2024-03-07T17:29:14.792031 __________________________________________________________________________________________________\n', '2024-03-07T17:29:14.792031 batch_normalization_173_2 (Batc (None, 12, 12, 384)  1152        conv2d_173_2[0][0]\n', '2024-03-07T17:29:14.792031 __________________________________________________________________________________________________\n', '2024-03-07T17:29:14.792031 batch_normalization_174_2 (Batc (None, 12, 12, 384)  1152        conv2d_174_2[0][0]\n', '2024-03-07T17:29:14.792031 __________________________________________________________________________________________________\n', '2024-03-07T17:29:14.792031 batch_normalization_177_2 (Batc (None, 12, 12, 384)  1152        conv2d_177_2[0][0]\n', '2024-03-07T17:29:14.792031 __________________________________________________________________________________________________\n', '2024-03-07T17:29:14.792031 batch_normalization_178_2 (Batc (None, 12, 12, 384)  1152        conv2d_178_2[0][0]\n', '2024-03-07T17:29:14.792031 __________________________________________________________________________________________________\n', '2024-03-07T17:29:14.792031 conv2d_179_2 (Conv2D)           (None, 12, 12, 192)  245760      average_pooling2d_17_2[0][0]\n', '2024-03-07T17:29:14.792031 __________________________________________________________________________________________________\n', '2024-03-07T17:29:14.792031 batch_normalization_86 (BatchNo (None, 12, 12, 320)  960         conv2d_86[0][0]\n', '2024-03-07T17:29:14.792031 __________________________________________________________________________________________________\n', '2024-03-07T17:29:14.792031 activation_88 (Activation)      (None, 12, 12, 384)  0           batch_normalization_88[0][0]\n', '2024-03-07T17:29:14.792031 __________________________________________________________________________________________________\n', '2024-03-07T17:29:14.792031 activation_89 (Activation)      (None, 12, 12, 384)  0           batch_normalization_89[0][0]\n', '2024-03-07T17:29:14.792031 __________________________________________________________________________________________________\n', '2024-03-07T17:29:14.792031 activation_92 (Activation)      (None, 12, 12, 384)  0           batch_normalization_92[0][0]\n', '2024-03-07T17:29:14.792031 __________________________________________________________________________________________________\n', '2024-03-07T17:29:14.792031 activation_93 (Activation)      (None, 12, 12, 384)  0           batch_normalization_93[0][0]\n', '2024-03-07T17:29:14.792031 __________________________________________________________________________________________________\n', '2024-03-07T17:29:14.792031 batch_normalization_94 (BatchNo (None, 12, 12, 192)  576         conv2d_94[0][0]\n', '2024-03-07T17:29:14.792031 __________________________________________________________________________________________________\n', '2024-03-07T17:29:14.792031 batch_normalization_171_2 (Batc (None, 12, 12, 320)  960         conv2d_171_2[0][0]\n', '2024-03-07T17:29:14.792031 __________________________________________________________________________________________________\n', '2024-03-07T17:29:14.792031 activation_173_2 (Activation)   (None, 12, 12, 384)  0           batch_normalization_173_2[0][0]\n', '2024-03-07T17:29:14.792031 __________________________________________________________________________________________________\n', '2024-03-07T17:29:14.792031 activation_174_2 (Activation)   (None, 12, 12, 384)  0           batch_normalization_174_2[0][0]\n', '2024-03-07T17:29:14.792031 __________________________________________________________________________________________________\n', '2024-03-07T17:29:14.792031 activation_177_2 (Activation)   (None, 12, 12, 384)  0           batch_normalization_177_2[0][0]\n', '2024-03-07T17:29:14.792031 __________________________________________________________________________________________________\n', '2024-03-07T17:29:14.792031 activation_178_2 (Activation)   (None, 12, 12, 384)  0           batch_normalization_178_2[0][0]\n', '2024-03-07T17:29:14.792031 __________________________________________________________________________________________________\n', '2024-03-07T17:29:14.792031 batch_normalization_179_2 (Batc (None, 12, 12, 192)  576         conv2d_179_2[0][0]\n', '2024-03-07T17:29:14.792031 __________________________________________________________________________________________________\n', '2024-03-07T17:29:14.792031 activation_86 (Activation)      (None, 12, 12, 320)  0           batch_normalization_86[0][0]\n', '2024-03-07T17:29:14.792031 __________________________________________________________________________________________________\n', '2024-03-07T17:29:14.792031 mixed9_1 (Concatenate)          (None, 12, 12, 768)  0           activation_88[0][0]\n', '2024-03-07T17:29:14.792031                                                                  activation_89[0][0]\n', '2024-03-07T17:29:14.792031 __________________________________________________________________________________________________\n', '2024-03-07T17:29:14.792031 concatenate_2 (Concatenate)     (None, 12, 12, 768)  0           activation_92[0][0]\n', '2024-03-07T17:29:14.792031                                                                  activation_93[0][0]\n', '2024-03-07T17:29:14.792031 __________________________________________________________________________________________________\n', '2024-03-07T17:29:14.792031 activation_94 (Activation)      (None, 12, 12, 192)  0           batch_normalization_94[0][0]\n', '2024-03-07T17:29:14.792031 __________________________________________________________________________________________________\n', '2024-03-07T17:29:14.792031 activation_171_2 (Activation)   (None, 12, 12, 320)  0           batch_normalization_171_2[0][0]\n', '2024-03-07T17:29:14.792031 __________________________________________________________________________________________________\n', '2024-03-07T17:29:14.792031 mixed9_0_2 (Concatenate)        (None, 12, 12, 768)  0           activation_173_2[0][0]\n', '2024-03-07T17:29:14.792031                                                                  activation_174_2[0][0]\n', '2024-03-07T17:29:14.792031 __________________________________________________________________________________________________\n', '2024-03-07T17:29:14.792031 concatenate_3_2 (Concatenate)   (None, 12, 12, 768)  0           activation_177_2[0][0]\n', '2024-03-07T17:29:14.792031                                                                  activation_178_2[0][0]\n', '2024-03-07T17:29:14.792031 __________________________________________________________________________________________________\n', '2024-03-07T17:29:14.792031 activation_179_2 (Activation)   (None, 12, 12, 192)  0           batch_normalization_179_2[0][0]\n', '2024-03-07T17:29:14.792031 __________________________________________________________________________________________________\n', '2024-03-07T17:29:14.792031 mixed10 (Concatenate)           (None, 12, 12, 2048) 0           activation_86[0][0]\n', '2024-03-07T17:29:14.792031                                                                  mixed9_1[0][0]\n', '2024-03-07T17:29:14.792031                                                                  concatenate_2[0][0]\n', '2024-03-07T17:29:14.792031                                                                  activation_94[0][0]\n', '2024-03-07T17:29:14.792031 __________________________________________________________________________________________________\n', '2024-03-07T17:29:14.792031 mixed9_2 (Concatenate)          (None, 12, 12, 2048) 0           activation_171_2[0][0]\n', '2024-03-07T17:29:14.792031                                                                  mixed9_0_2[0][0]\n', '2024-03-07T17:29:14.792031                                                                  concatenate_3_2[0][0]\n', '2024-03-07T17:29:14.792031                                                                  activation_179_2[0][0]\n', '2024-03-07T17:29:14.792031 __________________________________________________________________________________________________\n', '2024-03-07T17:29:14.792031 conv_class (Conv2D)             (None, 12, 12, 5)    10245       mixed10[0][0]\n', '2024-03-07T17:29:14.792031 __________________________________________________________________________________________________\n', '2024-03-07T17:29:14.792031 conv2d_184_2 (Conv2D)           (None, 12, 12, 448)  917504      mixed9_2[0][0]\n', '2024-03-07T17:29:14.792031 __________________________________________________________________________________________________\n', '2024-03-07T17:29:14.792031 global_average_pooling2d_1 (Glo (None, 5)            0           conv_class[0][0]\n', '2024-03-07T17:29:14.792031 __________________________________________________________________________________________________\n', '2024-03-07T17:29:14.792031 batch_normalization_184_2 (Batc (None, 12, 12, 448)  1344        conv2d_184_2[0][0]\n', '2024-03-07T17:29:14.792031 __________________________________________________________________________________________________\n', '2024-03-07T17:29:14.792031 output_1 (Softmax)              (None, 5)            0           global_average_pooling2d_1[0][0]\n', '2024-03-07T17:29:14.792031 __________________________________________________________________________________________________\n', '2024-03-07T17:29:14.792031 activation_184_2 (Activation)   (None, 12, 12, 448)  0           batch_normalization_184_2[0][0]\n', '2024-03-07T17:29:14.792031 __________________________________________________________________________________________________\n', '2024-03-07T17:29:14.792031 conv2d_181_2 (Conv2D)           (None, 12, 12, 384)  786432      mixed9_2[0][0]\n', '2024-03-07T17:29:14.792031 __________________________________________________________________________________________________\n', '2024-03-07T17:29:14.792031 conv2d_185_2 (Conv2D)           (None, 12, 12, 384)  1548288     activation_184_2[0][0]\n', '2024-03-07T17:29:14.792031 __________________________________________________________________________________________________\n', '2024-03-07T17:29:14.792031 lambda_1 (Lambda)               (None, 1, 5)         0           output_1[0][0]\n', '2024-03-07T17:29:14.792031 __________________________________________________________________________________________________\n', '2024-03-07T17:29:14.792031 batch_normalization_181_2 (Batc (None, 12, 12, 384)  1152        conv2d_181_2[0][0]\n', '2024-03-07T17:29:14.792031 __________________________________________________________________________________________________\n', '2024-03-07T17:29:14.792031 batch_normalization_185_2 (Batc (None, 12, 12, 384)  1152        conv2d_185_2[0][0]\n', '2024-03-07T17:29:14.792031 __________________________________________________________________________________________________\n', '2024-03-07T17:29:14.792031 lambda_2 (Lambda)               (None, 1, 1, 5)      0           lambda_1[0][0]\n', '2024-03-07T17:29:14.792031 __________________________________________________________________________________________________\n', '2024-03-07T17:29:14.792031 activation_181_2 (Activation)   (None, 12, 12, 384)  0           batch_normalization_181_2[0][0]\n', '2024-03-07T17:29:14.792031 __________________________________________________________________________________________________\n', '2024-03-07T17:29:14.792031 activation_185_2 (Activation)   (None, 12, 12, 384)  0           batch_normalization_185_2[0][0]\n', '2024-03-07T17:29:14.792031 __________________________________________________________________________________________________\n', '2024-03-07T17:29:14.792031 lambda_3 (Lambda)               (None, 12, 1, 5)     0           lambda_2[0][0]\n', '2024-03-07T17:29:14.792031 __________________________________________________________________________________________________\n', '2024-03-07T17:29:14.792031 conv2d_182_2 (Conv2D)           (None, 12, 12, 384)  442368      activation_181_2[0][0]\n', '2024-03-07T17:29:14.792031 __________________________________________________________________________________________________\n', '2024-03-07T17:29:14.792031 conv2d_183_2 (Conv2D)           (None, 12, 12, 384)  442368      activation_181_2[0][0]\n', '2024-03-07T17:29:14.792031 __________________________________________________________________________________________________\n', '2024-03-07T17:29:14.792031 conv2d_186_2 (Conv2D)           (None, 12, 12, 384)  442368      activation_185_2[0][0]\n', '2024-03-07T17:29:14.792031 __________________________________________________________________________________________________\n', '2024-03-07T17:29:14.792031 conv2d_187_2 (Conv2D)           (None, 12, 12, 384)  442368      activation_185_2[0][0]\n', '2024-03-07T17:29:14.792031 __________________________________________________________________________________________________\n', '2024-03-07T17:29:14.792031 average_pooling2d_18_2 (Average (None, 12, 12, 2048) 0           mixed9_2[0][0]\n', '2024-03-07T17:29:14.792031 __________________________________________________________________________________________________\n', '2024-03-07T17:29:14.792031 lambda_5 (Lambda)               (None, 12, 12, 5)    0           conv_class[0][0]\n', '2024-03-07T17:29:14.792031 __________________________________________________________________________________________________\n', '2024-03-07T17:29:14.792031 lambda_4 (Lambda)               (None, 12, 12, 5)    0           lambda_3[0][0]\n', '2024-03-07T17:29:14.792031 __________________________________________________________________________________________________\n', '2024-03-07T17:29:14.792031 conv2d_180_2 (Conv2D)           (None, 12, 12, 320)  655360      mixed9_2[0][0]\n', '2024-03-07T17:29:14.792031 __________________________________________________________________________________________________\n', '2024-03-07T17:29:14.792031 batch_normalization_182_2 (Batc (None, 12, 12, 384)  1152        conv2d_182_2[0][0]\n', '2024-03-07T17:29:14.792031 __________________________________________________________________________________________________\n', '2024-03-07T17:29:14.792031 batch_normalization_183_2 (Batc (None, 12, 12, 384)  1152        conv2d_183_2[0][0]\n', '2024-03-07T17:29:14.792031 __________________________________________________________________________________________________\n', '2024-03-07T17:29:14.792031 batch_normalization_186_2 (Batc (None, 12, 12, 384)  1152        conv2d_186_2[0][0]\n', '2024-03-07T17:29:14.792031 __________________________________________________________________________________________________\n', '2024-03-07T17:29:14.792031 batch_normalization_187_2 (Batc (None, 12, 12, 384)  1152        conv2d_187_2[0][0]\n', '2024-03-07T17:29:14.792031 __________________________________________________________________________________________________\n', '2024-03-07T17:29:14.792031 conv2d_188_2 (Conv2D)           (None, 12, 12, 192)  393216      average_pooling2d_18_2[0][0]\n', '2024-03-07T17:29:14.792031 __________________________________________________________________________________________________\n', '2024-03-07T17:29:14.792031 multiply_1 (Multiply)           (None, 12, 12, 5)    0           lambda_5[0][0]\n', '2024-03-07T17:29:14.792031                                                                  lambda_4[0][0]\n', '2024-03-07T17:29:14.792031 __________________________________________________________________________________________________\n', '2024-03-07T17:29:14.792031 lambda_7 (Lambda)               (None, 12, 12, 1)    0           lambda_5[0][0]\n', '2024-03-07T17:29:14.792031 __________________________________________________________________________________________________\n', '2024-03-07T17:29:14.792031 batch_normalization_180_2 (Batc (None, 12, 12, 320)  960         conv2d_180_2[0][0]\n', '2024-03-07T17:29:14.792031 __________________________________________________________________________________________________\n', '2024-03-07T17:29:14.792031 activation_182_2 (Activation)   (None, 12, 12, 384)  0           batch_normalization_182_2[0][0]\n', '2024-03-07T17:29:14.792031 __________________________________________________________________________________________________\n', '2024-03-07T17:29:14.792031 activation_183_2 (Activation)   (None, 12, 12, 384)  0           batch_normalization_183_2[0][0]\n', '2024-03-07T17:29:14.792031 __________________________________________________________________________________________________\n', '2024-03-07T17:29:14.792031 activation_186_2 (Activation)   (None, 12, 12, 384)  0           batch_normalization_186_2[0][0]\n', '2024-03-07T17:29:14.792031 __________________________________________________________________________________________________\n', '2024-03-07T17:29:14.792031 activation_187_2 (Activation)   (None, 12, 12, 384)  0           batch_normalization_187_2[0][0]\n', '2024-03-07T17:29:14.792031 __________________________________________________________________________________________________\n', '2024-03-07T17:29:14.792031 batch_normalization_188_2 (Batc (None, 12, 12, 192)  576         conv2d_188_2[0][0]\n', '2024-03-07T17:29:14.792031 __________________________________________________________________________________________________\n', '2024-03-07T17:29:14.792031 lambda_6 (Lambda)               (None, 12, 12)       0           multiply_1[0][0]\n', '2024-03-07T17:29:14.792031 __________________________________________________________________________________________________\n', '2024-03-07T17:29:14.792031 scale_transform_s_and_1 (Conv2D (None, 12, 12, 1)    2           lambda_7[0][0]\n', '2024-03-07T17:29:14.792031 __________________________________________________________________________________________________\n', '2024-03-07T17:29:14.792031 activation_180_2 (Activation)   (None, 12, 12, 320)  0           batch_normalization_180_2[0][0]\n', '2024-03-07T17:29:14.792031 __________________________________________________________________________________________________\n', '2024-03-07T17:29:14.792031 mixed9_1_2 (Concatenate)        (None, 12, 12, 768)  0           activation_182_2[0][0]\n', '2024-03-07T17:29:14.792031                                                                  activation_183_2[0][0]\n', '2024-03-07T17:29:14.792031 __________________________________________________________________________________________________\n', '2024-03-07T17:29:14.792031 concatenate_4_2 (Concatenate)   (None, 12, 12, 768)  0           activation_186_2[0][0]\n', '2024-03-07T17:29:14.792031                                                                  activation_187_2[0][0]\n', '2024-03-07T17:29:14.792031 __________________________________________________________________________________________________\n', '2024-03-07T17:29:14.792031 activation_188_2 (Activation)   (None, 12, 12, 192)  0           batch_normalization_188_2[0][0]\n', '2024-03-07T17:29:14.792031 __________________________________________________________________________________________________\n', '2024-03-07T17:29:14.792031 lambda_8 (Lambda)               (None, 12, 12, 1)    0           lambda_6[0][0]\n', '2024-03-07T17:29:14.792031 __________________________________________________________________________________________________\n', '2024-03-07T17:29:14.792031 scale_transform_s_and_2 (Conv2D (None, 12, 12, 1)    2           scale_transform_s_and_1[0][0]\n', '2024-03-07T17:29:14.792031 __________________________________________________________________________________________________\n', '2024-03-07T17:29:14.792031 mixed10_2 (Concatenate)         (None, 12, 12, 2048) 0           activation_180_2[0][0]\n', '2024-03-07T17:29:14.792031                                                                  mixed9_1_2[0][0]\n', '2024-03-07T17:29:14.792031                                                                  concatenate_4_2[0][0]\n', '2024-03-07T17:29:14.792031                                                                  activation_188_2[0][0]\n', '2024-03-07T17:29:14.792031 __________________________________________________________________________________________________\n', '2024-03-07T17:29:14.792031 multiply_2 (Multiply)           (None, 12, 12, 1)    0           lambda_8[0][0]\n', '2024-03-07T17:29:14.792031                                                                  scale_transform_s_and_2[0][0]\n', '2024-03-07T17:29:14.792031 __________________________________________________________________________________________________\n', '2024-03-07T17:29:14.792031 scale_transform_1 (Conv2D)      (None, 12, 12, 1)    2           multiply_2[0][0]\n', '2024-03-07T17:29:14.792031 __________________________________________________________________________________________________\n', '2024-03-07T17:29:14.792031 concatenate_5 (Concatenate)     (None, 12, 12, 4096) 0           mixed10[0][0]\n', '2024-03-07T17:29:14.792031                                                                  mixed10_2[0][0]\n', '2024-03-07T17:29:14.792031 __________________________________________________________________________________________________\n', '2024-03-07T17:29:14.792031 scale_transform_2 (Conv2D)      (None, 12, 12, 1)    2           scale_transform_1[0][0]\n', '2024-03-07T17:29:14.792031 __________________________________________________________________________________________________\n', '2024-03-07T17:29:14.792031 global_average_pooling2d_2 (Glo (None, 4096)         0           concatenate_5[0][0]\n', '2024-03-07T17:29:14.792031 __________________________________________________________________________________________________\n', '2024-03-07T17:29:14.792031 conv_class_filtered (Conv2D)    (None, 12, 12, 5)    10245       mixed10_2[0][0]\n', '2024-03-07T17:29:14.792031 __________________________________________________________________________________________________\n', '2024-03-07T17:29:14.792031 mask (Lambda)                   (None, 12, 12, 1)    0           scale_transform_2[0][0]\n', '2024-03-07T17:29:14.792031 __________________________________________________________________________________________________\n', '2024-03-07T17:29:14.792031 dense_1 (Dense)                 (None, 1024)         4195328     global_average_pooling2d_2[0][0]\n', '2024-03-07T17:29:14.792031 __________________________________________________________________________________________________\n', '2024-03-07T17:29:14.792031 global_attention_pooling2d_1 (G (None, 5)            0           conv_class_filtered[0][0]\n', '2024-03-07T17:29:14.792031                                                                  mask[0][0]\n', '2024-03-07T17:29:14.792031 __________________________________________________________________________________________________\n', '2024-03-07T17:29:14.792031 dense_2 (Dense)                 (None, 5)            5125        dense_1[0][0]\n', '2024-03-07T17:29:14.792031 __________________________________________________________________________________________________\n', '2024-03-07T17:29:14.792031 output_2 (Softmax)              (None, 5)            0           global_attention_pooling2d_1[0][0\n', '2024-03-07T17:29:14.792031 __________________________________________________________________________________________________\n', '2024-03-07T17:29:14.792031 output_3 (Softmax)              (None, 5)            0           dense_2[0][0]\n', '2024-03-07T17:29:14.792031 __________________________________________________________________________________________________\n', '2024-03-07T17:29:14.792031 lambda_9 (Lambda)               (None, 5)            0           dense_2[0][0]\n', '2024-03-07T17:29:14.792031                                                                  global_attention_pooling2d_1[0][0\n', '2024-03-07T17:29:14.792031                                                                  output_3[0][0]\n', '2024-03-07T17:29:14.792031                                                                  output_2[0][0]\n', '2024-03-07T17:29:14.792031 __________________________________________________________________________________________________\n', '2024-03-07T17:29:14.792031 output_5 (Softmax)              (None, 5)            0           lambda_9[0][0]\n', '2024-03-07T17:29:14.792031 __________________________________________________________________________________________________\n', '2024-03-07T17:29:14.792031 Rank_loss (Lambda)              (None, 2, 5)         0           output_1[0][0]\n', '2024-03-07T17:29:14.792031                                                                  output_2[0][0]\n', '2024-03-07T17:29:14.792031 __________________________________________________________________________________________________\n', '2024-03-07T17:29:14.792031 M_loss (Lambda)                 (None, 1)            0           mask[0][0]\n', '2024-03-07T17:29:14.792031 __________________________________________________________________________________________________\n', '2024-03-07T17:29:14.792031 S_and_loss (Lambda)             (None, 1)            0           scale_transform_s_and_2[0][0]\n', '2024-03-07T17:29:14.792031 __________________________________________________________________________________________________\n', '2024-03-07T17:29:14.792031 Cross_network_similarity_loss ( (None, 2, 5)         0           Rank_loss[0][0]\n', '2024-03-07T17:29:14.792031 __________________________________________________________________________________________________\n', '2024-03-07T17:29:14.792031 Rank_2_loss (Lambda)            (None, 2, 5)         0           output_1[0][0]\n', '2024-03-07T17:29:14.792031                                                                  output_5[0][0]\n', '2024-03-07T17:29:14.792031 __________________________________________________________________________________________________\n', '2024-03-07T17:29:14.792031 Rank_3_loss (Lambda)            (None, 2, 5)         0           output_2[0][0]\n', '2024-03-07T17:29:14.792031                                                                  output_5[0][0]\n', '2024-03-07T17:29:14.792031 ==================================================================================================\n', '2024-03-07T17:29:14.792031 Total params: 47,826,519\n', '2024-03-07T17:29:14.792031 Trainable params: 47,757,655\n', '2024-03-07T17:29:14.792031 Non-trainable params: 68,864\n', '2024-03-07T17:29:14.792031 __________________________________________________________________________________________________\n']}}, 'dropped': 0}}
…
